model/dqn_3_greedy_93.pt (torch, 704008 bytes, 23 tensors)

weight f4 [16, 2, 3, 3]
-0.005689784 -0.013588568 -0.010502513 0.36854187 0.00041254645 -0.024714898 0.40198776 0.018317092
-0.023332277 0.0047438424 0.0514658 -0.0027932741 0.39705256 -0.44690517 -9.680912e-05 0.022292098
0.014672606 -0.020525923 -0.21609661 0.258743 0.07813205 0.18465388 -0.5773423 -0.03635186
0.03077512 0.033858415 -0.029521238 -0.04112043 0.47214785 0.24650292 0.0070228563 -0.05515893
-0.023054413 0.044334497 -0.11057548 -0.04777894 0.28691888 0.32939547 0.057527695 0.122932196
-0.36308378 -0.0046080165 -0.21764657 -0.037867203 0.0688192 0.049166314 0.27185425 -0.26156655
-0.20501432 -0.0071383514 0.057823576 0.059393473 0.13924442 0.072412364 0.0049327323 0.018943565
-0.057643402 -0.56178397 0.37138078 0.2622918 -0.5309477 0.042026043 -0.22943564 -0.12758197
0.14856996 0.029642684 0.114705615 -0.15976036 0.2667079 0.0011571308 0.049918547 0.056126274
0.0069802627 0.01852727 0.003609152 0.49939957 -0.058572378 -0.0322388 -0.07021226 0.04236948
0.03018768 -0.01751862 0.011118908 -0.0099963015 0.3969048 0.50086665 -0.0040226253 0.025938489
0.04625566 -0.019124214 -0.011677936 -0.054479636 0.06591309 0.004106968 0.63671756 0.06632882
-0.12254221 0.57984936 -0.015018131 -0.018589854 0.0006516179 0.01903155 -0.12346967 -0.10351912
-0.009704349 0.016572494 -0.08793718 0.024948977 -0.3849056 -0.03978583 -0.01564593 -0.50398344
-0.05621226 -0.02063515 -0.03573099 0.07000462 0.008829682 0.49075052 -0.61965877 -0.06276815
-0.049316492 -0.07862614 -0.004650001 -0.028919935 0.024701871 0.05751567 -0.13138483 0.15749946
-0.06251688 -0.2146717 -0.18409038 0.025340728 0.086749375 -0.2736485 -0.06745322 -0.17587183
-0.53649265 -0.18103278 -0.012297124 -0.06468434 -0.20130388 0.013731586 -0.13348413 -0.09169382
-0.013364989 0.3588852 0.0069586737 0.013126766 0.37967962 0.021355288 0.011158985 -0.0044051483
-0.014527103 0.0078987535 -0.5277943 0.37849075 -0.0014002139 -0.019149534 0.011853472 -0.013857559
0.0026306622 -0.022550942 -0.40193284 0.0035191088 0.030666126 -0.37649745 0.024507113 -0.028856963
0.004245675 -0.015679076 -0.0028465176 0.5716845 -0.35913417 0.020663248 -0.036570605 0.024915552
0.021254364 -0.015548108 0.0120479055 0.014337663 0.0312841 0.006067466 0.054917794 0.33901286
0.04009931 -0.0031935577 0.2429802 -0.20980062 -0.060892668 -0.18500361 -0.19889991 0.013648656
0.3581109 -0.53590846 -0.18301684 -0.09026754 -0.05730335 0.02676275 0.066077836 0.0042777266
-0.018326303 0.2229075 -0.21851377 0.11404052 0.17518498 -0.20901021 0.20535378 0.0011830664
-0.003384891 0.12871054 0.17758128 -0.5413626 -0.49775934 0.05420859 0.075554475 0.09560126
0.15301965 0.051612858 0.009556032 -0.051795766 -0.4934308 0.07918472 0.10818766 0.27180555
-0.17555328 -0.21373914 -0.22552817 0.17321661 -0.10788184 -0.11706792 0.25378704 0.031022437
-0.09156303 0.0743293 -0.2892778 0.03073597 0.055127848 0.7387173 -0.009635288 -0.03697604
-0.09276844 0.026838966 -0.039692566 -0.43602458 -0.38374528 0.003556504 0.025404079 0.044796452
0.0061002546 0.017233238 -0.013966055 0.015955348 0.00690719 0.07475113 -0.047460865 -0.011948789
00000000: 5e71 babb 96a2 5ebc bb12 2cbc 85b1 bc3e
00000010: 0c4b d839 e676 cabc 57d1 cd3e ba0d 963c
00000020: 5523 bfbc 3c72 9b3b cdcd 523d 5d0f 37bb
00000030: 794a cb3e c1d0 e4be 0006 cbb8 eb9d b63c
00000040: 5f65 703c fb25 a8bc 6e48 5dbe f679 843e
00000050: b203 a03d e815 3d3e b4cc 13bf b0e5 14bd
00000060: 1b1c fc3c 1faf 0a3d 86d6 f1bc e56d 28bd
00000070: 5dbd f13e 436b 7c3e fd1f e63b 55ee 61bd
00000080: 9cdc bcbc 1798 353d 6675 e2bd dab3 43bd
00000090: 08e7 923e 86a6 a83e 29a2 6b3d e0c3 fb3d
000000a0: 1ee6 b9be d8fe 96bb bede 5ebe a41a 1bbd
000000b0: 15f1 8c3d 9e62 493d 7b30 8b3e 0dec 85be
000000c0: 46ef 51be d5e8 e9bb 6ad8 6c3d 9246 733d
000000d0: 1796 0e3e ef4c 943d c2a2 a13b 892f 9b3c
000000e0: 7d1b 6cbd 13d1 0fbf 9f25 be3e 1c4b 863e
000000f0: 30ec 07bf 8023 2c3d 2df1 6abe d9a4 02be
00000100: b922 183e 37d5 f23c c7ea ea3d 3898 23be
00000110: f08d 883e deaa 973a 6477 4c3d aae4 653d
00000120: b0ba e43b 80c6 973c 8687 6c3b 4db1 ff3e
00000130: 97e9 6fbd d50c 04bd 72cb 8fbd 9f8b 2d3d
00000140: 274c f73c 3583 8fbc 152c 363c 87c7 23bc
00000150: 1b37 cb3e cc38 003f 3ad0 83bb f47c d43c
00000160: 9376 3d3d 62aa 9cbc d054 3fbc 0a26 5fbd
00000170: 71fd 863d bf93 863b ecff 223f 68d7 873d
00000180: 69f7 fabd 0271 143f 9b0e 76bc c049 98bc
00000190: 56d1 2a3a 0ee8 9b3c abdd fcbd d501 d4bd
000001a0: fdfe 1ebc 0ac3 873c 6918 b4bd cc61 cc3c
000001b0: 5912 c5be 77f6 22bd e52b 80bc 0f05 01bf
000001c0: d43e 66bd 0c0b a9bc a95a 12bd 955e 8f3d
000001d0: 5faa 103c a743 fb3e f5a1 1ebf 968c 80bd
000001e0: 1700 4abd be06 a1bd 095f 98bb 80e9 ecbc
000001f0: 945b ca3c 8d95 6b3d bf89 06be 8a47 213e
00000200: da08 80bd e6d2 5bbe 3082 3cbe 5c97 cf3c
00000210: a8a9 b13d a81b 8cbe ea24 8abd bf17 34be
00000220: 9557 09bf a860 39be e079 49bc 3979 84bd
00000230: 9b22 4ebe 72fa 603c 10b0 08be f8c9 bbbd
00000240: d4f8 5abc cdbf b73e 9605 e43b a611 573c
00000250: 5e65 c23e 49f1 ae3c 2dd4 363c 1059 90bb
00000260: 1603 6ebc c669 013c 871d 07bf 8ac9 c13e
00000270: 6287 b7ba 7cdf 9cbc 1135 423c d10a 63bc
00000280: 3067 2c3b c1bc b8bc 24ca cdbe d9a0 663b
00000290: 8737 fb3c 46c4 c0be 24c3 c83c 7065 ecbc
000002a0: 4e1f 8b3b 6871 80bc a48c 3abb ea59 123f
000002b0: 6fe0 b7be f945 a93c 0fcb 15bd b31b cc3c
000002c0: a21d ae3c 7ebd 7ebc 9464 453c 84e8 6a3c
000002d0: c223 003d 98d1 c63b 7bf1 603d 1893 ad3e
000002e0: 2d3f 243d 024b 51bb cdcf 783e f9d5 56be
000002f0: 976a 79bd 9671 3dbe 6bac 4bbe 9d9e 5f3c
00000300: 505a b73e 4c31 09bf c468 3bbe 30de b8bd
00000310: ebb6 6abd 8e3d db3c d153 873d 2c2c 8c3b
00000320: 0b21 96bc dd41 643e 13c2 5fbe 138e e93d
00000330: b163 333e c606 56be 4348 523e 1f11 9b3a
00000340: 0cd5 5dbb b2cc 033e ded7 353e bd96 0abf
00000350: 50da febe d409 5e3d 4ebc 9a3d 98ca c33d
00000360: 2fb1 1c3e 0168 533d e790 1c3c cc27 54bd
00000370: f6a2 fcbe 992b a23d 7e91 dd3d 192a 8b3e
00000380: 3dc4 33be 6fde 5abe dbf0 66be b25f 313e
00000390: 27f1 dcbd 4ec1 efbd 60f0 813e c422 fe3c
000003a0: 6685 bbbd f639 983d 381c 94be 00ca fb3c
000003b0: bdcd 613d 941c 3d3f 54dd 1dbc 3074 17bd
000003c0: 61fd bdbd 64dd db3c ac94 22bd 9d3e dfbe
000003d0: 437a c4be 3c14 693b 371c d03c 7c7c 373d
000003e0: a5e4 c73b b82c 8d3c e1d1 64bc cab4 823c
000003f0: b655 e23b 1f17 993d 5366 42bd dac4 43bc

bias f4 [16]
-0.44334358 -0.18024449 -0.31937474 -0.15441951 -0.49382338 -0.49379185 0.025355069 0.42278996
-0.40800855 0.21911368 -0.11614673 0.25309914 0.47293562 -0.007876604 0.0066749398 -0.32568187
00000000: eefd e2be 0392 38be 1685 a3be 2620 1ebe
00000010: 6bd6 fcbe 49d2 fcbe 6fb5 cf3c ed77 d83e
00000020: 7fe6 d0be 565f 603e 56de edbd 3696 813e
00000030: 9e24 f23e df0c 01bc 74b9 da3b c6bf a6be

weight f4 [16]
0.66541845 0.28068227 0.09508476 0.13397636 0.5708975 0.22559352 0.41646194 0.25040886
0.6823868 0.68920696 0.16047354 0.19400677 0.15979362 0.40500584 0.44216874 0.4040512
00000000: dd58 2a3f 96b5 8f3e ccbb c23d 1931 093e
00000010: 5726 123f fd01 673e 803a d53e 9735 803e
00000020: e7b0 2e3f de6f 303f 2d53 243e b6a9 463e
00000030: f0a0 233e ed5c cf3e f163 e23e cddf ce3e

bias f4 [16]
-0.123230144 -0.0739691 -0.03958623 0.009670248 -0.07081205 -0.26396012 0.36433783 0.30299622
-0.13007174 0.0182325 0.02716018 0.11494386 0.107842475 -0.07516028 0.17678368 -0.059970077
00000000: 1660 fcbd 1d7d 97bd 2c25 22bd f66f 1e3c
00000010: e805 91bd c825 87be 7d8a ba3e 5222 9b3e
00000020: 8731 05be 535c 953c 077f de3c b067 eb3d
00000030: 84dc dc3d a2ed 99bd c806 353e 2fa3 75bd

running_mean f4 [16]
0.108336486 0.11204171 0.06606454 0.09749611 0.2685398 0.14932895 0.012235092 0.07787945
0.0797065 0.109318174 0.029830046 0.23756512 0.31934503 0.11044079 0.045736145 0.13025185
00000000: 85df dd3d 2076 e53d d84c 873d 0aac c73d
00000010: 0c7e 893e b0e9 183e b275 483c 437f 9f3d
00000020: 293d a33d 35e2 df3d 245e f43c 4544 733e
00000030: 3181 a33e c82e e23d d355 3b3d be60 053e

running_var f4 [16]
0.026502633 0.02520466 0.017244287 0.037245866 0.12642057 0.045616888 0.0025872954 0.014376191
0.014962747 0.022676855 0.0071875923 0.052433245 0.060406893 0.056620564 0.0266188 0.03331093
00000000: 0d1c d93c 017a ce3c e443 8d3c 1f8f 183d
00000010: 6574 013e c6d8 3a3d 9d8f 293b 1e8a 6b3c
00000020: 4f26 753c d0c4 b93c e585 eb3b 3ec4 563d
00000030: 386d 773d f7ea 673d ab0f da3c 0b71 083d

weight f4 [32, 16, 3, 3]
0.0017132078 -0.32042718 0.33690608 -0.037170388 -0.09525826 0.07397136 -0.015493761 -0.060181804
0.17048246 0.1783951 -0.19851096 0.17209823 0.23724346 0.2986987 0.034570273 0.27221468
0.25701913 0.015948113 -0.56574285 0.1041766 -0.049606506 -0.26637885 0.21390845 0.0715615
0.088486455 0.26492053 -0.21020846 -0.034007497 0.29215753 0.24121918 -0.058785137 0.2593645
0.099109896 -0.304541 0.032995448 0.16804013 -0.27206257 -0.036042847 0.091987796 -0.011306231
0.0026986706 0.11757865 -0.2330338 -0.32135984 0.006626261 0.113063045 0.062611535 0.46237952
-0.042537343 -0.19980098 0.21885307 -0.09977594 0.06799809 0.19020776 -0.10565164 -0.64294493
-0.22510573 0.036156513 -0.22431792 -0.21307437 0.09869744 0.25801355 -0.3420312 -0.12671088
-0.30882925 -0.22219269 -0.27707103 -0.533564 -0.2837415 0.09434065 -0.0012975278 0.08637471
0.2232567 0.02039197 0.13988791 0.22268166 0.07124136 0.24750511 0.056381274 0.017243901
0.06594367 -0.06382023 0.10953517 -0.41787496 0.00594953 -0.22621278 -0.037163883 0.05738445
0.061354965 0.35488057 0.1497861 -0.4747402 0.40927747 0.017560199 -0.05666624 0.18815154
0.12132385 0.011840558 0.00207512 0.3076224 -0.53497887 -0.05197149 0.12440797 -0.18080224
0.2919981 0.5028936 -0.051707152 -0.1253172 0.46028176 -0.3391609 -0.13207771 0.017265543
-0.13506217 0.004537877 0.049705062 0.25635758 0.14725606 -0.11480046 -0.30253586 0.3065119
0.40553486 -0.38287947 0.07475143 0.3010547 0.29780653 -0.28396562 0.033336867 -0.2795804
-0.53319013 -0.022160187 0.05743796 -0.08369521 0.20513782 0.28980944 -0.20724005 0.11156955
0.14521356 -0.22173412 -0.21895182 0.1670749 0.091605976 -0.43244 0.16953939 0.13367593
0.05813169 -0.03793777 0.05426069 0.006816493 0.06044877 -1.1389655 0.099160075 0.0575926
-0.03418446 0.0028848983 -0.032343626 0.020552078 0.011721338 -0.0025655217 0.05538035 0.07780956
0.36534747 0.010753583 -0.014384402 0.16263555 0.05621998 0.06368396 0.035328113 0.059806418
-0.00962362 0.19850902 -0.015381906 0.050523903 -0.030146597 -0.23014258 0.22912954 0.114640966
0.1358639 -0.08074474 -0.2181554 0.086081706 0.007140368 0.05926468 -0.032117035 -0.040773757
-0.07859279 0.8059906 0.0036122124 -0.027141994 -0.2031169 0.01666668 0.15296562 -0.07072769
0.17997462 0.029401442 0.038718253 0.01940458 -0.13928467 -0.02174356 0.037346486 0.043394614
0.01711322 -0.07533007 -0.015045742 -0.33861423 0.018116811 0.12751642 0.0018423238 0.06928132
-0.03152035 -0.027196262 -0.0955688 -0.3676011 -0.11233283 -0.0520809 -0.014389667 -0.6129671
-0.0046385047 -0.040320944 -0.0026558763 -0.0491657 0.044236775 -0.028848898 -0.045027107 0.26242694
-0.057269327 0.054649375 0.011557466 0.011293806 0.058946498 0.0030636257 -0.15115152 0.0069788913
0.09734094 -0.29538867 -0.08544113 0.07747167 0.05114675 -0.017771965 -0.18524727 -0.5671266
0.046373226 0.13348906 -0.07737913 0.057585467 -0.010540247 0.08036204 -0.007858612 -0.5982629
-0.28808954 -0.027541736 -0.24042648 0.039646473 -0.043131303 0.17157325 -0.019857522 -0.032448385
00000000: b78d e03a 080f a4be f47e ac3e fa3f 18bd
00000010: c316 c3bd 4c7e 973d 8bd9 7dbc 3281 76bd
00000020: f492 2e3e 35ad 363e 7546 4bbe 853a 303e
00000030: f3ef 723e 09ef 983e 8f99 0d3d b95f 8b3e
00000040: 0398 833e 9ea5 823c 86d4 10bf 8b5a d53d
00000050: 3130 4bbd cf62 88be d10a 5b3e d68e 923d
00000060: 6338 b53d aaa3 873e e340 57be 724b 0bbd
00000070: ac95 953e 2902 773e afc8 70bd 6ccb 843e
00000080: 21fa ca3d ccec 9bbe 3c26 073d b612 2c3e
00000090: c94b 8bbe aaa1 13bd 1964 bc3d c53d 39bc
000000a0: 2edc 303b 13cd f03d 6aa0 6ebe 4789 a4be
000000b0: 1b21 d93b 998d e73d 7a3a 803d 02bd ec3e
000000c0: a33b 2ebd a198 4cbe 051b 603e 5457 ccbd
000000d0: 9542 8b3d d3c5 423e e35f d8bd 0a98 24bf
000000e0: 1e82 66be da18 143d 99b3 65be 2b30 5abe
000000f0: e221 ca3d 5a1a 843e b71e afbe 7fc0 01be
00000100: de1e 9ebe 7b86 63be 41dc 8dbe a697 08bf
00000110: 9146 91be ac35 c13d cf11 aaba 39e5 b03d
00000120: 689d 643e 100d a73c c73e 0f3e a906 643e
00000130: fde6 913d fb71 7d3e 0df0 663d 1543 8d3c
00000140: 7a0d 873d 2eb4 82bd fa53 e03d b5f3 d5be
00000150: 46f4 c23b 53a4 67be 2839 18bd f50b 6b3d
00000160: 584f 7b3d e8b2 b53e 8761 193e 2611 f3be
00000170: d18c d13e 68da 8f3c dc1a 68bd ccaa 403e
00000180: a378 f83d e6fe 413c bdfe 073b af80 9d3e
00000190: 60f4 08bf 0fe0 54bd 9bc9 fe3d 3924 39be
000001a0: c680 953e a3bd 003f e1ca 53bd 2753 00be
000001b0: 0daa eb3e 7fa6 adbe 613f 07be 7870 8d3c
000001c0: bd4d 0abe 79b2 943b 8997 4b3d 4d41 833e
000001d0: 4bca 163e 811c ebbd fbe5 9abe 21ef 9c3e
000001e0: 44a2 cf3e c708 c4be 4717 993d d723 9a3e
000001f0: 197a 983e f163 91be 3d8c 083d 2a25 8fbe
00000200: 267f 08bf 4889 b5bc 1144 6b3d 6568 abbd
00000210: a60f 523e e761 943e bc36 54be 947e e43d
00000220: ddb2 143e 450e 63be e834 60be af15 2b3e
00000230: ea9b bb3d c768 ddbe bc9b 2d3e 58e2 083e
00000240: 7f1b 6e3d a364 1bbd 7540 5e3d e35c df3b
00000250: 2199 773d 9fc9 91bf 7014 cb3d 38e6 6b3d
00000260: 0105 0cbd 9010 3d3b c07a 04bd d55c a83c
00000270: db0a 403c 5022 28bb 82d6 623d 9e5a 9f3d
00000280: d30e bb3e cc2f 303c 8eac 6bbc ef89 263e
00000290: ec46 663d bc6c 823d 36b4 103d 93f7 743d
000002a0: 63ac 1dbc f345 4b3e 6404 7cbc 27f2 4e3d
000002b0: fff5 f6bc 7faa 6bbe efa0 6a3e e2c8 ea3d
000002c0: e81f 0b3e 805d a5bd 2164 5fbe 9b4b b03d
000002d0: c0f9 e93b 85bf 723d 278d 03bd 6202 27bd
000002e0: 42f5 a0bd 6655 4e3f deba 6c3b e358 debc
000002f0: e0fd 4fbe 9088 883c 05a3 1c3e aed9 90bd
00000300: 444b 383e 4bdb f03c 0897 1e3d 5bf6 9e3c
00000310: a4a0 0ebe 8d1f b2bc a1f8 183d 8dbe 313d
00000320: 0631 8c3c a746 9abd 6a82 76bc d85e adbe
00000330: b569 943c aa93 023e 217a f13a 5de3 8d3d
00000340: 7c1b 01bd b2ca debc 93b9 c3bd 3636 bcbe
00000350: c10e e6bd c852 55bd a3c2 6bbc 69eb 1cbf
00000360: 99fe 97bb 9327 25bd 360e 2ebb f961 49bd
00000370: 9f31 353d 8654 ecbc 586e 38bd d35c 863e
00000380: 3e93 6abd 06d8 5f3d 875b 3d3c a809 393c
00000390: e271 713d 1cc7 483b 77c7 1abe 2faf e43b
000003a0: b05a c73d 2f3d 97be c2fb aebd 78a9 9e3d
000003b0: 417f 513d 8396 91bc 76b1 3dbe 352f 11bf
000003c0: daf1 3d3d 5bb1 083e f378 9ebd bdde 6b3d
000003d0: 00b1 2cbc da94 a43d 68c1 00bc c227 19bf
000003e0: 7980 93be 359f e1bc 5c32 76be 5764 223d
000003f0: 73aa 30bd e6b0 2f3e 3eac a2bc 99e8 04bd

bias f4 [32]
-0.11685641 -0.622134 -0.47425607 -0.20089868 -0.009009258 -0.36683667 -0.32566163 -0.25006294
-0.52218103 -0.24086404 -0.59295076 -0.5545032 -0.35466623 -0.2010664 -0.66043186 -0.09102472
-0.12615411 -0.41196486 -0.27738553 -0.23843709 -0.14929122 -0.3010314 -0.3031862 -0.469838
-0.108827814 -0.45660445 -0.50655717 -0.5181664 -0.2735977 -0.26026964 -0.5258773 -0.56434774
00000000: 6a52 efbd 2c44 1fbf b1d1 f2be 62b8 4dbe
00000010: 919b 13bc 04d2 bbbe 1fbd a6be 4008 80be
00000020: a8ad 05bf 10a5 76be 9fcb 17bf ecf3 0dbf
00000030: d096 b5be 5ae4 4dbe 1012 29bf 2b6b babd
00000040: 8b2e 01be 0fed d2be 7a05 8ebe da28 74be
00000050: ccdf 18be ca20 9abe 393b 9bbe 9b8e f0be
00000060: 1ee1 debd 0fc8 e9be bbad 01bf 8ea6 04bf
00000070: ff14 8cbe 1042 85be e59f 06bf 1879 10bf

weight f4 [32]
0.030108456 0.32374948 0.15028955 0.03620568 0.11697289 0.022529839 0.0469493 0.06659193
0.048680805 0.0375449 0.03251185 0.029708192 0.043658953 0.08778765 0.13135518 0.02602006
0.11011257 0.038201433 0.08094161 0.06984363 0.06288498 0.028502602 0.071452886 0.034628823
0.0647146 0.059068676 0.25165558 0.06560966 0.091286436 0.049509734 0.26641926 0.39959064
00000000: 02a6 f63c 7ec2 a53e 81e5 193e 684c 143d
00000010: 7c8f ef3d 7f90 b83c e94d 403d 5a61 883d
00000020: 8665 473d aec8 193d 252b 053d 985e f33c
00000030: bbd3 323d 03ca b33d f981 063e 0528 d53c
00000040: b382 e13d 1b79 1c3d b7c4 a53d 2d0a 8f3d
00000050: d7c9 803d 4a7e e93c e455 923d f4d6 0d3d
00000060: 1789 843d fff1 713d 00d9 803e 5c5e 863d
00000070: 62f4 ba3d b8ca 4a3d 1b68 883e 2597 cc3e

bias f4 [32]
0.000811095 0.04164664 0.05631951 -0.0018510696 0.00541374 0.019446045 -0.0009472991 0.007281329
-0.0038931835 0.005339721 0.018380849 -0.008630024 0.0037859485 0.030931378 0.032561615 -0.0042085852
0.01657914 0.015106137 0.022012452 0.0113942055 -0.012130563 0.002055942 -0.0022456849 0.006407089
0.039657183 0.00872158 0.029356355 -0.00023011662 -0.007735455 0.02400478 0.11726658 0.056553118
00000000: aa9f 543a ab95 2a3d 49af 663d 979f f2ba
00000010: be65 b13b 504d 9f3c 2b54 78ba 3798 ee3b
00000020: c824 7fbb d4f8 ae3b 6f93 963c f264 0dbc
00000030: ad1d 783b cd63 fd3c 545f 053d 2ce8 89bb
00000040: fad0 873c bb7f 773c 7553 b43c c3ae 3a3c
00000050: 45bf 46bc fcbc 063b 572c 13bb 8ff2 d13b
00000060: 926f 223d f5e4 0e3c bd7c f03c 764b 71b9
00000070: b379 fdbb aca5 c43c 7629 f03d 3ea4 673d

running_mean f4 [32]
0.13790928 0.01412919 0.23928992 0.08249876 0.37376997 0.14733133 0.12299168 0.11449847
0.06935143 0.0371633 0.0566737 0.06935853 0.04741289 0.05889227 0.05293163 0.22126636
0.12826723 0.28369898 0.12763034 0.2399987 0.08719036 0.062251225 0.2146281 0.08843203
0.20251775 0.110322304 0.045926042 0.07491515 0.042357784 0.13635033 0.13643865 0.014171242
00000000: 1738 0d3e 1e7e 673c 6b08 753e 1cf5 a83d
00000010: c75e bf3e 06de 163e 10e3 fb3d 2d7e ea3d
00000020: 1f08 8e3d 8b38 183d af22 683d d80b 8e3d
00000030: 0534 423d 0539 713d d6ce 583d a693 623e
00000040: 7c58 033e fe40 913e 87b1 023e 38c2 753e
00000050: dc90 b23d 24fb 7e3d 78c7 5b3e da1b b53d
00000060: d060 4f3e a9f0 e13d f21c 3c3d 1d6d 993d
00000070: 5b7f 2d3d 6c9f 0b3e 93b6 0b3e 7f2e 683c

running_var f4 [32]
0.13066368 0.025874924 0.2264294 0.090381116 0.2455409 0.13294046 0.12576716 0.0888636
0.04753049 0.031765673 0.048624717 0.07298963 0.03266884 0.07113499 0.04883796 0.17315109
0.11282907 0.36212668 0.17056207 0.23177053 0.08463737 0.058145702 0.31101686 0.08582975
0.17644192 0.11538796 0.03969535 0.087160625 0.02600191 0.10316372 0.15631005 0.015679022
00000000: b3cc 053e a6f7 d33c 1cdd 673e bc19 b93d
00000010: 136f 7b3e 8b21 083e 1bc9 003e 1efe b53d
00000020: 55af 423d b91c 023d b62a 473d 967b 953d
00000030: c3cf 053d 39af 913d 500a 483d 854e 313e
00000040: ed12 e73d ab68 b93e d3a7 2e3e 4155 6d3e
00000050: 5c56 ad3d 302a 6e3d 9a3d 9f3e 82c7 af3d
00000060: 31ad 343e 8650 ec3d 9797 223d 4581 b23d
00000070: f501 d53c 8047 d33d be0f 203e 4b71 803c

weight f4 [128, 512]
-0.14485087 -0.06947308 0.40494654 0.134202 -0.32473415 0.0033842758 0.24924865 0.26116368
-0.4275644 0.028335704 -0.016165385 0.1593843 0.014848041 -0.034775145 0.10727693 0.33187437
-0.45777878 0.1356014 -0.37179762 -0.1577517 -0.21803351 -0.25429854 0.111493036 -0.12665735
-0.19434902 -0.020309823 -0.2040088 -0.09384022 0.03460121 0.051574416 0.0047395094 -0.11346868
0.30762318 0.15596528 0.005590695 -0.0831887 0.2650202 0.0082539115 -0.070553645 -0.5589453
0.51238436 0.10588545 -0.25551048 -0.07560131 -0.10028998 0.0697659 0.054328818 -0.37638426
-0.058086634 0.024075221 0.3273806 -0.112795115 -0.05270354 -0.17678082 0.21840617 -0.35324305
0.1115313 -0.4285868 -0.02320674 -0.0019201925 0.039372846 -0.3273319 0.0009756061 0.059458923
0.018609831 -0.057681248 0.018016616 -0.10189267 -0.14131582 0.11650214 0.27899584 0.014743184
0.086579084 -0.17547771 -0.025127629 -0.27665654 0.049888525 -0.40082902 -0.1595807 -0.020044819
0.20808148 0.11106856 -0.011802671 0.12536997 0.1750304 0.14618194 -0.5352664 -0.17070872
0.07385647 -0.15780419 0.08125272 0.025178095 -0.11550942 -0.10966938 -0.20405026 0.02154903
0.24676698 0.26880023 0.040975228 0.2681622 0.02477017 -0.2613158 0.032057032 -0.0753514
0.023805356 0.03855714 0.079897955 0.027007267 -0.06090128 0.029482856 -0.04245717 0.016977549
0.02825115 0.5781742 0.29829335 -0.022180485 -0.15388699 -0.22271726 0.04648227 0.20611091
-0.33193514 -0.30326527 0.2895941 -0.5154506 0.028728217 -0.12551135 -0.091246314 -0.041400723
0.074969225 0.06402169 -0.12990312 -0.19536376 0.16746141 -0.23676299 0.13709174 -0.1274115
0.26964936 -0.239686 -0.06620025 -0.08856486 0.1782243 0.38675985 -0.22217506 -0.1435935
0.009557925 0.06976832 -0.073967464 -0.03815955 -0.033280455 -0.022069635 0.19243775 0.25044408
-0.042358782 0.49707526 -0.0936775 -0.039544664 -0.015281453 0.2456466 0.012826922 -0.04006455
0.1898163 0.040816374 -0.073359385 0.14151764 -0.2561407 -0.080279514 -0.3289424 -0.13022804
0.22901419 -0.10545942 -0.113594055 -0.047589354 0.109838985 0.031402502 -0.013761034 0.28264213
0.35380858 0.152321 0.15829891 0.36555198 0.33198676 0.15462638 0.1312011 0.2187231
0.0053622313 -0.28749084 0.029450236 -0.15242764 0.12904319 0.42956612 0.35891107 -0.09601158
-0.20142965 -0.23245743 0.149558 -0.23341788 -0.11469696 -0.32800323 0.2955041 0.30595648
-0.07108403 -0.26912165 -0.063335255 -0.24235673 -0.20823063 -0.28434053 -0.0156086255 0.26092106
-0.05700164 -0.017878877 -0.08642342 -0.29283684 -0.18820548 -0.53752637 -0.42847404 -0.428054
0.14299813 0.22489238 0.09096951 0.05408116 0.12155795 0.13550013 0.25001177 -0.43413794
-0.3573219 0.10351493 0.3777452 -0.26570022 -0.24384908 0.045552798 0.19030344 0.28338704
0.1867651 -0.045281716 -0.38749188 0.11002423 -0.20539597 -0.028936155 -0.6200662 -0.24122334
0.38058263 -0.07231448 0.36567286 0.056408726 -0.27981722 0.13120963 -0.3455215 -0.19052573
0.098165944 -0.29976377 -0.4650832 -0.25434604 0.25935346 -0.2916147 -0.118422285 0.13749048
00000000: c953 14be e747 8ebd 2755 cf3e 406c 093e
00000010: 8e43 a6be baca 5d3b 0a3b 7f3e 3fb7 853e
00000020: b9e9 dabe 4720 e83c 456d 84bc a335 233e
00000030: 3345 733c 6270 0ebd 02b4 db3d 70eb a93e
00000040: fb61 eabe 18db 0a3e 425c bebe a989 21be
00000050: 2d44 5fbe 6b33 82be 7656 e43d 77b2 01be
00000060: 6e03 47be c960 a6bc afe7 50be 4d2f c0bd
00000070: 00ba 0d3d b23f 533d e34d 9b3b 4462 e8bd
00000080: c980 9d3e 5db5 1f3e 2632 b73b d65e aabd
00000090: bab0 873e 6a3b 073c 6e7e 90bd 0a17 0fbf
000000a0: 9f2b 033f 79da d83d 45d2 82be dcd4 9abd
000000b0: d564 cdbd 6de1 8e3d e587 5e3d 70b5 c0be
000000c0: 40ec 6dbd 6639 c53c 6e9e a73e 2001 e7bd
000000d0: abdf 57bd 0806 35be dea5 5f3e 46dc b4be
000000e0: 866a e43d bb6f dbbe 101c bebc f8ae fbba
000000f0: 6c45 213d 0c98 a7be d1bf 7f3a 338b 733d
00000100: a573 983c 2c43 6cbd 9597 933c 1bad d0bd
00000110: 18b5 10be ad98 ee3d 8bd8 8e3e 658d 713c
00000120: 6050 b13d 6eb0 33be 75d8 cdbc eda5 8dbe
00000130: e957 4c3d 7639 cdbe 1f69 23be 0835 a4bc
00000140: 5013 553e ea77 e33d fd5f 41bc fc60 003e
00000150: 2b3b 333e b8b0 153e 3807 09bf 44ce 2ebe
00000160: 1042 973d 6c97 21be d367 a63d 4b42 ce3c
00000170: 3490 ecbd 579a e0bd 8df2 50be 9787 b03c
00000180: 7cb0 7c3e 2fa0 893e a4d5 273d 8e4c 893e
00000190: d0ea ca3c 2fcb 85be 3c4e 033d d651 9abd
000001a0: 7303 c33c 17ee 1d3d 8aa1 a33d 583e dd3c
000001b0: 9f73 79bd 0886 f13c 92e7 2dbd 8014 8b3c
000001c0: f56e e73c 3903 143f e8b9 983e d9b3 b5bc
000001d0: 8d94 1dbe fe0f 64be 3164 3e3d bd0e 533e
000001e0: 67f3 a9be 9645 9bbe ae45 943e 92f4 03bf
000001f0: 7057 eb3c 0c86 00be 59df babd ce93 29bd
00000200: 7789 993d ce1d 833d 5305 05be 700d 48be
00000210: 017b 2b3e ff71 72be c761 0c3e 2978 02be
00000220: 7b0f 8a3e 3f70 75be ff93 87bd 7e61 b5bd
00000230: 6e80 363e 6305 c63e dc81 63be 2d0a 13be
00000240: d898 1c3c b1e2 8e3d 417c 97bd 304d 1cbd
00000250: 1651 08bd 61cb b4bc 670e 453e 353a 803e
00000260: 6780 2dbd a680 fe3e fdd9 bfbd 96f9 21bd
00000270: 0f5f 7abc c88a 7b3e 0328 523c ba1a 24bd
00000280: 345f 423e 122f 273d 723d 96bd 00ea 103e
00000290: e024 83be 9669 a4bd 236b a8be 805a 05be
000002a0: b282 6a3e 1cfb d7bd 00a4 e8bd 0eed 42bd
000002b0: 43f3 e03d e99f 003d f675 61bc 78b6 903e
000002c0: 6626 b53e 09fa 1b3e 1c19 223e a129 bb3e
000002d0: 2bfa a93e 6156 1e3e 9559 063e f3f8 5f3e
000002e0: a8b5 af3b 0032 93be 9f41 f13c fe15 1cbe
000002f0: e623 043e 17f0 db3e 31c3 b73e b8a1 c4bd
00000300: 9343 4ebe 5209 6ebe bb25 193e 1905 6fbe
00000310: 3de6 eabd 0af0 a7be 504c 973e 54a6 9c3e
00000320: 8194 91bd 50ca 89be eab5 81bd 5d2c 78be
00000330: 693a 55be 1595 91be 52bb 7fbc 7297 853e
00000340: 8d7a 69bd b976 92bc c3fe b0bd b6ee 95be
00000350: f0b8 40be 549b 09bf f360 dbbe e529 dbbe
00000360: 1a6e 123e 304a 663e 394e ba3d 3584 5d3d
00000370: 60f3 f83d 8cc0 0a3e 8b01 803e 5447 debe
00000380: e5f2 b6be a3ff d33d d267 c13e dc09 88be
00000390: 93b3 79be 9295 3a3d e8de 423e 1b18 913e
000003a0: 5a3f 3f3e 5279 39bd 5665 c6be 6254 e13d
000003b0: 5253 52be 840b edbc a9bc 1ebf 4003 77be
000003c0: badb c23e 9d19 94bd 7939 bb3e d60c 673d
000003d0: 3444 8fbe d15b 063e 32e8 b0be 2d19 43be
000003e0: 3a0b c93d a37a 99be 631f eebe a539 82be
000003f0: fac9 843e 864e 95be 6287 f2bd 4eca 0c3e

bias f4 [128]
-0.22010458 -0.21851993 -0.07725234 -0.20138882 0.015728792 -0.0023612636 -0.013142733 -0.023657424
-0.30405837 -0.044800762 -0.1169994 0.05117398 -0.13403831 -0.0062365094 -0.029894056 -0.42050293
0.06259319 -0.1566604 -0.1470352 -0.105148554 -0.040232796 -0.09747017 0.153818 -0.09161275
-0.028813649 -0.06863459 0.14572115 -0.34741548 -0.19880816 -0.41721407 -0.24961744 0.13197671
-0.08959283 0.06740344 -0.13268833 0.24553193 0.07772307 -0.04353975 -0.09095596 -0.22587636
-0.09161876 0.13563333 0.0007101869 0.25489825 -0.09358517 -0.14105268 -0.12517385 0.024704438
0.15080278 -0.042996064 0.1041138 -0.05986263 0.1309451 0.16805679 -0.3228336 -0.11758508
0.1314541 -0.12498055 -0.122020304 0.09832921 0.052081056 -0.2052765 0.039261147 0.71289927
-0.27071202 -0.14698498 -0.0017672447 -0.27757314 -0.030084953 0.14679685 -0.29601535 -0.06924609
-0.20734535 -0.06369704 -0.19214864 -0.14525539 -0.018258814 -0.14548111 -0.07845269 -0.10648355
0.23178235 0.21795715 -0.061789684 -0.027549887 0.061919183 -0.1856138 0.10950721 0.14196937
-0.11154822 -0.041234568 0.07319374 -0.056555532 -0.08597842 -0.0061327405 0.11580419 -0.03767362
-0.4120382 -0.019466035 -0.46709216 -0.19784603 0.113503 -0.13113917 0.14314319 -0.047712017
-0.044178754 -0.38933176 0.03523373 0.036169365 0.06087451 0.04079227 -0.12118019 -0.09855521
-0.14440028 -0.06439198 -0.20434259 -0.23836116 -0.08528296 0.10284444 -0.3708726 -0.19864061
0.18690966 0.010435694 -0.26695198 0.11923466 -0.082054816 -0.57395154 -0.10388451 -0.22783658
00000000: 1863 61be b0c3 5fbe 7a36 9ebd df38 4ebe
00000010: abd9 803c 6ebf 1abb 9e54 57bc 37cd c1bc
00000020: 8aad 9bbe 0181 37bd 629d efbd cf9b 513d
00000030: 5741 09be a25b ccbb 61e4 f4bc 294c d7be
00000040: dc30 803d 956b 20be 6590 16be 2058 d7bd
00000050: 25cb 24bd 719e c7bd 7782 1d3e 779f bbbd
00000060: 9a0a ecbc 4b90 8cbd ed37 153e 71e0 b1be
00000070: 5e94 4bbe 159d d5be b79b 7fbe e724 073e
00000080: 727c b7bd d10a 8a3d 73df 07be b96c 7b3e
00000090: 462d 9f3d bd56 32bd 1e47 babd 224c 67be
000000a0: 9ea2 bbbd 77e3 0a3e d62b 3a3a 0682 823e
000000b0: 95a9 bfbd 1d70 10be 932d 00be f660 ca3c
000000c0: 0b6c 1a3e a41c 30bd 9e39 d53d 8432 75bd
000000d0: 7916 063e 1417 2c3e 724a a5be 72d0 f0bd
000000e0: e79b 063e cdf5 ffbd c8e5 f9bd d360 c93d
000000f0: f252 553d 0134 52be 4cd0 203d 9180 363f
00000100: c49a 8abe 3b83 16be e4a2 e7ba 111e 8ebe
00000110: b874 f6bc ea51 163e 538f 97be e5d0 8dbd
00000120: 5752 54be 9873 82bd 9dc2 44be d4bd 14be
00000130: 8293 95bc 00f9 14be ceab a0bd 0c14 dabd
00000140: 5a58 6d3e 2930 5f3e 2e17 7dbd 4db0 e1bc
00000150: f89e 7d3d 8b11 3ebe 5145 e03d 6b60 113e
00000160: 6573 e4bd 94e5 28bd 99e6 953d c6a6 67bd
00000170: 7415 b0bd 28f5 c8bb bf2a ed3d a74f 1abd
00000180: acf6 d2be 3c77 9fbc b426 efbe 2698 4abe
00000190: 4374 e83d 5949 06be 2194 123e ad6d 43bd
000001a0: c8f4 34bd 7e56 c7be 3e51 103d 5426 143d
000001b0: 8d57 793d cc15 273d 522d f8bd 50d7 c9bd
000001c0: abdd 13be f1df 83bd 2f3f 51be f314 74be
000001d0: d5a8 aebd 1ba0 d23d 03e3 bdbe 7268 4bbe
000001e0: 3f65 3f3e 79fa 2a3c eead 88be 4d31 f43d
000001f0: 5b0c a8bd 7dee 12bf 67c1 d4bd fe4d 69be

weight f4 [128, 128]
-0.041340828 -0.06303944 -0.1478527 -0.050730813 0.034644738 0.011364104 -0.048271652 -0.07219891
-0.025846379 -0.14044604 -0.006274523 -0.21186876 0.038595207 -0.1640068 0.09140095 0.04054592
-0.17537896 -0.052756336 -0.011528096 0.05461245 -0.10470947 -0.14939417 0.04221362 0.017710187
-0.021289106 -0.13967963 0.02277749 -0.029980373 0.047075436 -0.16509715 -0.12960717 0.022847557
-0.07286294 -0.20526697 -0.1930296 -0.041997656 -0.0026607702 -0.08208485 0.006180787 -0.09783434
-0.026123164 -0.047003344 -0.112366185 -0.12385556 -0.21645229 0.07248991 0.02925613 0.040765826
-0.053161792 -0.10619764 -0.07058942 -0.13381939 -0.08316672 -0.007200454 -0.114775516 -0.07634331
-0.09808783 -0.07979847 0.021460837 0.0024279426 -0.16654237 -0.034043845 0.035146203 -0.048433922
0.07778067 -0.13386714 -0.017542167 0.01859842 -0.088664554 -0.07925091 -0.0556113 0.0004246534
-0.01701682 -0.1719584 -0.26204398 0.055909254 -0.027883217 -0.029510112 0.061236203 -0.12761465
-0.12342763 -0.20720848 -0.008201656 -0.09171683 0.10061282 -0.19336085 -0.20759611 -0.070893355
-0.15051593 -0.08532618 0.013141804 -0.12580417 0.030492732 -0.053201944 -0.031006977 -0.099892125
-0.08767089 -0.14889835 0.09542868 -0.2052745 -0.029778047 -0.24817845 0.022611914 -0.035752732
-0.09559288 -0.030904997 -0.18499999 -0.1638332 -0.020192612 -0.1646985 -0.1065666 -0.061882406
-0.27374288 -0.2982265 0.022238573 -0.15105672 0.09163583 -0.0009255567 -0.06109451 -0.39295107
-0.15030965 -0.024717648 -0.059816256 -0.12125893 -0.12288443 -0.06314387 -0.15153399 -0.13266242
0.027816655 -0.17531717 -0.1299185 0.18891768 0.0649955 -0.19247182 -0.22654863 -0.043762963
-0.13184135 0.020297552 0.054350797 -0.21640237 -0.20353967 -0.07345578 -0.12904212 0.06383421
-0.005319003 -0.15507844 0.13185655 -0.35782698 -0.71414006 0.010623188 0.07263855 0.050983217
-0.27989754 -0.36536023 -0.19262508 -0.14369895 -0.24895464 -0.0158578 -0.35445893 -0.049317382
-0.25491166 0.13642399 -0.09322543 -0.16711345 0.2639043 -0.049005296 -0.23538907 -0.05454503
0.082116105 -0.0015339513 0.00026129463 0.08141045 -0.2634527 -0.06362959 0.065351374 0.176288
-0.33652902 -0.20315078 -0.08298058 -0.19726151 -0.05511386 -0.017114658 0.19093266 0.30205795
-0.103644975 0.14872287 -0.33246323 -0.010695066 -0.028057277 0.06660915 -0.26176783 -0.020895485
0.10236958 -0.15533651 -0.069928214 0.073781 -0.20725739 0.28685376 0.03867668 0.24292324
-0.2757923 0.041156903 -0.2785531 0.039622124 0.19833773 -0.10187581 -0.17774516 -0.14375626
-0.08037509 -0.09769305 0.094234176 0.26075122 -0.06315817 0.029082619 0.21578673 -0.7155573
-0.5787092 0.17506287 0.14143018 -0.30771488 -0.19030656 0.09268841 -0.3982525 -0.14288095
-0.05866921 -0.12423993 -0.109155625 -0.1293295 0.019581532 0.06986446 0.22146124 -0.16796385
-0.032957654 -0.40888688 -0.06587617 -0.25412083 0.19451526 -0.36923417 0.07091759 0.28925288
-0.07891287 -0.11681587 0.16640976 -0.17290366 -0.009916123 -0.14196669 -0.09605733 -0.26714423
-0.11738133 0.3629408 0.09873118 -0.06761835 -0.39533225 -0.28437784 0.14162026 -0.12936002
00000000: 0055 29bd d21a 81bd b366 17be 1dcb 4fbd
00000010: a4e7 0d3d 8230 3a3c 7fb8 45bd 06dd 93bd
00000020: c9bb d3bc 16d1 0fbe 849a cdbb 20f4 58be
00000030: 0216 1e3d 66f1 27be 6c30 bb3d 7b13 263d
00000040: 8b96 33be 0717 58bd 57e0 3cbc 4eb1 5f3d
00000050: eb71 d6bd c9fa 18be 30e8 2c3d f414 913c
00000060: 7e66 aebc 2d08 0fbe dc97 ba3c 6699 f5bc
00000070: 2cd2 403d 3a0f 29be beb7 04be cd2a bb3c
00000080: 2a39 95bd 8131 52be 8da9 45be bc05 2cbd
00000090: 5160 2ebb 1a1c a8bd 3388 ca3b 5f5d c8bd
000000a0: 3f00 d6bc 9486 40bd 3e20 e6bd fca7 fdbd
000000b0: aba5 5dbe 9775 943d 8daa ef3c 11fa 263d
000000c0: 2ec0 59bd 267e d9bd 3091 90bd f307 09be
000000d0: 5053 aabd c9f1 ebbb 6d0f ebbd e259 9cbd
000000e0: 46e2 c8bd 616d a3bd a3ce af3c 1e1e 1f3b
000000f0: 158a 2abe 8f71 0bbd 77f5 0f3d a662 46bd
00000100: 794b 9f3d 7814 09be 97b4 8fbc b75b 983c
00000110: c395 b5bd 4d4e a2bd adc8 63bd 04a4 de39
00000120: dc66 8bbc dd15 30be a12a 86be 1a01 653d
00000130: 586b e4bc 31bf f1bc d0d2 7a3d 6aad 02be
00000140: a0c7 fcbd 762e 54be 3d60 06bc 09d6 bbbd
00000150: 180e ce3d 6300 46be 1394 54be 8930 91bd
00000160: d920 1abe 7ebf aebd b950 573c cfd2 00be
00000170: e5cb f93c 48ea 59bd 5802 febc 3e94 ccbd
00000180: cc8c b3bd cf78 18be 1d70 c33d 7b33 52be
00000190: 17f1 f3bc 7e22 7ebe 9f3c b93c 7571 12bd
000001a0: 33c6 c3bd 7a2c fdbc a370 3dbe e4c3 27be
000001b0: fa6a a5bc b9a6 28be 973f dabd 6878 7dbd
000001c0: 0728 8cbe 25b1 98be ab2d b63c 9dae 1abe
000001d0: 91ab bb3d 0fa1 72ba 3d3e 7abd e230 c9be
000001e0: c6ea 19be aa7c cabc e401 75bd 9a56 f8bd
000001f0: d5aa fbbd 9351 81bd ba2b 1bbe a8d8 07be
00000200: c1df e33c 5886 33be 5b09 05be a373 413e
00000210: 5c1c 853d 5517 45be 5dfc 67be cb40 33bd
00000220: 6b01 07be 0d47 a63c f19e 5e3d 9598 5dbe
00000230: b46c 50be fc6f 96bd 9e23 04be 83bb 823d
00000240: 084b aebb e2cc 1ebe 6705 073e 1935 b7be
00000250: e2d1 36bf e10c 2e3c 85c3 943d c7d3 503d
00000260: bb4e 8fbe 7f10 bbbe 823f 45be d125 13be
00000270: f7ed 7ebe 38e8 81bc a47b b5be 0601 4abd
00000280: c883 82be bbb2 0b3e f9ec bebd ca1f 2bbe
00000290: 771e 873e c7b9 48bd d509 71be 9c6a 5fbd
000002a0: 7d2c a83d dd0e c9ba 5ffe 8839 86ba a63d
000002b0: 46e3 86be 3b50 82bd f1d6 853d d784 343e
000002c0: 884d acbe c206 50be b9f1 a9bd ecfe 49be
000002d0: 12bf 61bd 0a34 8cbc da83 433e 57a7 9a3e
000002e0: d143 d4bd cf4a 183e 9f38 aabe 5c3a 2fbc
000002f0: 60d8 e5bc 616a 883d 6f06 86be 022d abbc
00000300: 24a7 d13d 8910 1fbe 8636 8fbd 7e1a 973d
00000310: 483b 54be 7fde 923e 706b 1e3d dfc0 783e
00000320: a634 8dbe 2494 283d 839e 8ebe cf4a 223d
00000330: 0c19 4b3e 44a4 d0bd d402 36be d734 13be
00000340: b29b a4bd 4b13 c8bd d9fd c03d 2f81 853e
00000350: 1259 81bd ac3e ee3c 32f7 5c3e c32e 37bf
00000360: 4926 14bf ae43 333e 13d3 103e ce8c 9dbe
00000370: b9df 42be 6cd3 bd3d c0e7 cbbe 624f 12be
00000380: 204f 70bd 8171 febd fc8c dfbd f46e 04be
00000390: 7369 a03c 1915 8f3d bcc6 623e b7fe 2bbe
000003a0: 9bfe 06bd 9f59 d1be 16ea 86bd 201c 82be
000003b0: 022f 473e 430c bdbe 3e3d 913d f418 943e
000003c0: 129d a1bd 293d efbd 5267 2a3e a80d 31be
000003d0: 3c77 22bc b75f 11be b5b9 c4bd 21c7 88be
000003e0: 9f65 f0bd 60d3 b93e 9333 ca3d 7d7b 8abd
000003f0: fd68 cabe f999 91be e704 113e f476 04be

bias f4 [128]
0.04355828 0.1121568 -0.0247063 -0.015913114 -0.108894445 -0.12548584 -0.022809489 -0.075417385
0.5928396 0.12175399 -0.07881904 0.4061441 -0.06603127 -0.18213338 0.08794372 0.042701647
0.42036507 0.12486357 0.3092368 -0.036240786 -0.15979868 -0.19376723 0.5038556 0.39256263
-0.0146765495 0.12300222 0.1481358 -0.11123602 -0.07533605 -0.06343274 -0.2695092 0.50604934
-0.108041435 -0.02627938 -0.06957933 0.51132023 -0.25349233 -0.07264649 0.56456196 0.1262636
0.4936653 -0.089095026 -0.13558936 0.27528077 -0.1522138 0.69268286 -0.053227324 -0.19227351
0.42632234 -0.053040113 0.6412845 -0.06722314 -0.19283716 -0.01817797 -0.17504717 0.2338373
0.5511763 -0.05791372 -0.03759611 -0.026179636 -0.028825542 -0.113933444 0.3092928 -0.027231438
-0.052480396 0.5601389 0.40756837 -0.057101104 -0.041128352 0.5890436 -0.12965992 0.70228463
0.39944917 0.5458132 0.0058628717 0.5517599 0.4950627 -0.08203619 -0.14217588 -0.10834623
-0.037031908 -0.23635267 -0.1731267 0.25032923 -0.07642511 0.60261184 0.5331238 0.10450217
0.73282486 -0.07514605 -0.08265207 0.21028168 0.48793396 -0.022872804 -0.011690213 0.48743218
-0.15951808 -0.024844777 -0.104426794 -0.06082933 -0.045808483 0.42038044 0.5258135 0.04460188
-0.001056466 0.37187302 0.39189184 0.39899737 0.26832047 -0.11328406 0.3946414 0.5713286
0.32465488 0.5630451 -0.2958256 0.1831785 0.38352266 -0.04926371 0.054405686 0.6763435
0.12923513 0.09003295 0.44270188 -0.028235158 -0.0018095116 0.49684688 -0.04282997 0.18618755
00000000: 2b6a 323d 77b2 e53d de64 cabc 385c 82bc
00000010: 0d04 dfbd 5c7f 00be f7da babc 6e74 9abd
00000020: 56c4 173f 285a f93d e06b a1bd 1ff2 cf3e
00000030: 673b 87bd 2c81 3abe d61b b43d ece7 2e3d
00000040: 173a d73e 79b8 ff3d 4954 9e3e 3871 14bd
00000050: 44a2 23be eb6a 46be aefc 003f f8fd c83e
00000060: e975 70bc 97e8 fb3d e9b0 173e b6cf e3bd
00000070: c949 9abd 06e9 81bd 1cfd 89be 738c 013f
00000080: d444 ddbd db47 d7bc 9c7f 8ebd e2e5 023f
00000090: bfc9 81be afc7 94bd 2287 103f 3f4b 013e
000000a0: b3c1 fc3e 7477 b6bd f0d7 0abe 9af1 8c3e
000000b0: efdd 1bbe aa53 313f e504 5abd 59e3 44be
000000c0: ec46 da3e 9740 59bd 392b 243f 49ac 89bd
000000d0: 1b77 45be f7e9 94bc 913f 33be 0c73 6f3e
000000e0: e419 0d3f f036 6dbd 61fe 19bd ad76 d6bc
000000f0: 8b23 ecbc f055 e9bd a05b 9e3e 7714 dfbc
00000100: aff5 56bd 4365 0f3f cdac d03e d9e2 69bd
00000110: 3476 28bd 90cb 163f 92c5 04be edc8 333f
00000120: 9a84 cc3e 6aba 0b3f 551d c03b 2340 0d3f
00000130: dc78 fd3e 9702 a8bd 8e96 11be a1e4 ddbd
00000140: c5ae 17bd 6f06 72be 2048 31be 272b 803e
00000150: c584 9cbd c544 1a3f cd7a 083f 3c05 d63d
00000160: 699a 3b3f 2ce6 99bd 7d45 a9bd 1554 573e
00000170: 7bd2 f93e bf5f bbbc 4f88 3fbc b690 f93e
00000180: b558 23be 4687 cbbc b7dd d5bd 2d28 79bd
00000190: ada1 3bbd 1b3c d73e b79b 063f 76b0 363d
000001a0: 1e79 8aba 2466 be3e 0ca6 c83e 6249 cc3e
000001b0: 4d61 893e 7901 e8bd 700e ca3e 9742 123f
000001c0: 2a39 a63e b923 103f 7476 97be 2593 3b3e
000001d0: 155d c43e bec8 49bd 7fd8 5e3d d924 2d3f
000001e0: 3756 043e 3263 b83d d2a9 e23e 6b4d e7bc
000001f0: 222d edba b762 fe3e 7b6e 2fbd f3a7 3e3e

weight f4 [24, 128]
-0.09859784 -0.08085398 0.051972482 -0.0036540986 0.39058036 0.09787143 0.103005044 0.32275698
-0.0033619457 0.23756817 -0.047606625 -0.2973662 -0.09210264 0.12661228 -0.06770332 0.13900544
0.04420883 -0.039088316 0.100568235 0.30773214 0.22858296 0.19991903 -0.16683128 -0.019756507
-0.03588786 -0.07261595 0.23974681 0.013221195 0.15733264 -0.05862632 0.06384957 0.086365275
0.115311585 0.010866094 0.03528279 0.10714335 0.059880327 -0.0042593144 0.079821594 0.4063074
0.03372436 0.017736107 0.056046605 0.08190152 0.11253951 0.07129109 -0.03444864 0.121566705
-0.211762 0.059925903 0.036455628 -0.023321666 -0.13584225 -0.2348659 0.19847634 0.03953773
0.20005047 0.21995312 0.20097384 0.037685804 0.11178493 0.032912508 -0.06926695 -0.13997011
0.15534936 0.0996762 0.10192949 -0.04179196 -0.08071738 0.074358776 0.3394198 0.09977374
0.15997316 -0.589292 0.088417135 0.0044059753 0.04867303 0.053810842 0.02300131 0.11875332
0.110941604 0.14838688 0.3343024 -0.49397284 0.042143688 0.09552461 -0.11567209 0.014388861
-0.62573457 0.11551632 0.04526747 0.23735107 -0.019328311 -0.007449059 0.023029514 -0.08326697
0.19487901 0.13041902 -0.039973095 0.065184146 -0.07906823 -0.051563364 0.04238224 0.12623264
0.09867329 0.0011961365 0.07915975 0.07877486 0.11050678 -0.044416707 0.07954215 0.15423897
-0.22010744 0.029851254 0.18638988 0.121926636 -0.110365085 -0.015726093 -0.23214431 0.05365223
0.10059405 0.005886812 0.027250996 0.028234426 0.078324884 0.032533333 0.022199133 0.1006596
-0.05395924 -0.25235504 0.03464877 0.052120876 0.37286577 0.09213539 -0.010390597 0.027131075
0.07074372 0.21079612 0.069255054 0.040037647 0.04779953 -0.06972897 0.25813627 0.44548827
-0.022533378 0.092231676 0.04799651 0.42712387 0.06961519 0.37528878 0.09015283 0.04706846
-0.3501352 0.22125597 0.23253606 0.001908399 0.00051997893 0.07019539 0.049960654 0.050532922
0.1255017 -0.045203526 0.14071426 0.08567936 0.0059998855 0.08177235 0.11550322 0.13124788
-0.3669432 0.052362893 -0.03344444 0.083737314 -0.087545685 0.030594172 0.11569118 0.26225975
-0.3239032 -0.045004055 0.07940697 -0.21196349 0.27302283 0.19225706 0.19647723 -0.2931122
0.124799 -0.13129637 0.21751063 0.029906347 0.19634995 -0.05495547 0.16270621 -0.09895299
0.057525583 0.1246521 -0.6017414 -0.0992321 -0.047626823 -0.1336938 0.3401985 0.07003491
0.074481025 -0.17579117 0.12893383 -0.056537375 0.076739945 -0.007304287 -0.053652007 0.11710354
-0.24718405 0.18229708 0.31874287 -0.029296467 0.28872874 0.07134007 -0.011722045 0.064067714
0.11146317 -0.022787208 -0.09412714 0.31126288 0.034129154 0.027493177 0.1456575 0.050821885
0.20454526 0.06752823 0.1795057 0.15770201 0.04607783 -0.31458834 -0.58975446 0.19726712
0.002579346 -0.12527968 0.05464301 0.08393553 -0.42314172 0.27315983 0.066714406 0.16976877
0.3119906 0.044634834 0.11502597 -0.011483892 0.19400094 0.014868782 0.4393909 0.13024598
-0.16353038 -0.022917293 0.118416876 0.117024 -0.18930957 -0.041100025 0.030935582 -0.061021972
00000000: aaed c9bd c596 a5bd 19e1 543d 9a79 6fbb
00000010: 26fa c73e d170 c83d 4ff4 d23d 6740 a53e
00000020: 1754 5cbb 1245 733e 2aff 42bd 6240 98be
00000030: 4fa0 bcbd a6a6 013e 0aa8 8abd 7157 0e3e
00000040: 5114 353d 121b 20bd b8f6 cd3d 118f 9d3e
00000050: a711 6a3e 93b7 4c3e d2d5 2abe 66d8 a1bc
00000060: 26ff 12bd acb7 94bd 3080 753e b69d 583c
00000070: cf1b 213e 2722 70bd 90c3 823d 47e0 b03d
00000080: 7b28 ec3d b407 323c b084 103d f96d db3d
00000090: 1345 753d b891 8bbb 8179 a33d 8607 d03e
000000a0: 8e22 0a3d 504b 913c 2091 653d fcbb a73d
000000b0: 1d7b e63d 1001 923d 041a 0dbd f7f7 f83d
000000c0: 23d8 58be dd74 753d 7f52 153d 140d bfbc
000000d0: 3b1a 0bbe b080 70be 623d 4b3e 51f2 213d
000000e0: 08da 4c3e 643b 613e 16cc 4d3e 6e5c 1a3d
000000f0: 7fef e43d 44cf 063d d5db 8dbd 5354 0fbe
00000100: e713 1f3e 0923 cc3d 69c0 d03d 0c2e 2bbd
00000110: 274f a5bd 6a49 983d 6fc8 ad3e 2d56 cc3d
00000120: 01d0 233e d7db 16bf 0b14 b53d 0060 903b
00000130: 5f5d 473d c268 5c3d 3e6d bc3c f134 f33d
00000140: 5a35 e33d bbf2 173e af29 ab3e 02ea fcbe
00000150: dc9e 2c3d 68a2 c33d 7de5 ecbd 42bf 6b3c
00000160: 2430 20bf d293 ec3d 626a 393d 290c 733e
00000170: 6856 9ebc 3c17 f4bb 64a8 bc3c e087 aabd
00000180: 5d8e 473e 908c 053e d4ba 23bd 447f 853d
00000190: 86ee a1bd 1b34 53bd 0099 2d3d 2143 013e
000001a0: 3915 ca3d aec7 9c3a 821e a23d b754 a13d
000001b0: 6151 e23d 4bee 35bd ffe6 a23d d2f0 1d3e
000001c0: d863 61be 9e8a f43c fddc 3e3e acb4 f93d
000001d0: 1707 e2bd 02d4 80bc 3db7 6dbe 71c2 5b3d
000001e0: 4104 ce3d 29e6 c03b 7b3d df3c e24b e73c
000001f0: cc68 a03d ac41 053d f5da b53c 9f26 ce3d
00000200: 5d04 5dbd ae34 81be deeb 0d3d b37c 553d
00000210: 43e8 be3e 7bb1 bc3d 533d 2abc fd41 de3c
00000220: 15e2 903d f0da 573e 98d5 8d3d 84fe 233d
00000230: 71c9 433d 10ce 8ebd 702a 843e 0a17 e43e
00000240: eb97 b8bc f6e3 bc3d fd97 443d fbaf da3e
00000250: 6992 8e3d da25 c03e 0ca2 b83d dcca 403d
00000260: ec44 b3be ed90 623e ef1d 6e3e 3f23 fa3a
00000270: 324f 083a 9ac2 8f3d 8ba3 4c3d 9cfb 4e3d
00000280: 8583 003e 5527 39bd 6617 103e a978 af3d
00000290: b09a c43b 4378 a73d f48c ec3d d865 063e
000002a0: fbdf bbbe 797a 563d 0afd 08bd 787e ab3d
000002b0: 274b b3bd a1a0 fa3c 7fef ec3d e946 863e
000002c0: a4d6 a5be 2c56 38bd 1fa0 a23d f50c 59be
000002d0: a6c9 8b3e 09df 443e 5431 493e cd12 96be
000002e0: 9e96 ff3d 8e72 06be 1bbb 5e3e 28fe f43c
000002f0: f60f 493e fd18 61bd 759c 263e dda7 cabd
00000300: f29f 6b3d 9a49 ff3d b90b 1abf 333a cbbd
00000310: 5814 43bd 07e7 08be 7f2e ae3e 776e 8f3d
00000320: 8289 983d 9a02 34be 3b07 043e bc93 67bd
00000330: d529 9d3d cd58 efbb 35c2 5bbd fbd3 ef3d
00000340: d11d 7dbe 16ac 3a3e 4432 a33e 25ff efbc
00000350: 41d4 933e be1a 923d d20d 40bc ef35 833d
00000360: cd46 e43d 3dac babc bbc5 c0bd d95d 9f3e
00000370: 03cb 0b3d 5f39 e13c 3d27 153e 9c2a 503d
00000380: 5074 513e 3e4c 8a3d 58d0 373e a37c 213e
00000390: 1bbc 3c3d b911 a1be 26fa 16bf 6400 4a3e
000003a0: 3f0a 293b 5149 00be 59d1 5f3d 64e6 ab3d
000003b0: 08a6 d8be 9bdb 8b3e 90a1 883d ddd7 2d3e
000003c0: 3bbd 9f3e 04d3 363d bc92 eb3d ef26 3cbc
000003d0: 2fa8 463e 319c 733c d8f7 e03e 345f 053e
000003e0: 8274 27be 0cbd bbbc 8c84 f23d 47aa ef3d
000003f0: 5eda 41be 8058 28bd 9e6c fd3c 2df2 79bd

bias f4 [24]
0.01840753 0.016789278 0.026239559 0.082425624 0.07514529 0.05287973 0.1033797 0.073754296
0.0755078 0.042676818 0.027902184 0.013259503 -0.019429158 -0.052999415 -0.04187083 -0.07627613
-0.032432284 -0.06842566 -0.05767567 -0.05823336 -0.026111787 -0.026273355 -0.06855138 -0.07374043
00000000: 63cb 963c ab89 893c 58f4 d63c c4ce a83d
00000010: c6e5 993d 6a98 583d bcb8 d33d 7e0c 973d
00000020: d5a3 9a3d e3cd 2e3d 1f93 e43c 633e 593c
00000030: e629 9fbc ea15 59bd bf80 2bbd a936 9cbd
00000040: b7d7 04bd c122 8cbd 533d 6cbd 1b86 6ebd
00000050: 63e8 d5bc 383b d7bc aa64 8cbd 3905 97bd

weight f4 [128, 512]
0.110532984 0.33540875 -0.13514972 -0.093161926 -0.87545717 0.38863948 0.04811696 -0.13913995
-0.0018908523 0.06819878 -0.027803386 -0.120729536 0.28836155 -0.096289486 -0.08301875 0.2107187
-0.4356107 -0.29617894 0.084888645 0.109749466 0.017338559 0.115072235 0.082232915 0.15850598
0.07131867 0.11440247 0.034966737 0.0796354 -0.11946335 0.041161284 -0.063773885 0.15581281
0.27905428 0.15223159 0.2905822 -0.10430647 0.26278427 0.07573839 0.05502899 -0.13272494
0.07344014 -0.15799282 0.07933684 -0.11436284 0.24322934 0.28576607 -0.075559005 -0.3059579
0.32826704 -0.3577654 -0.09840114 0.056360036 -0.36415893 -0.37216747 -0.31893593 -0.08889225
-0.43618575 0.011958923 0.014350307 -0.08672768 0.062464304 -0.075579174 0.5415594 0.17532676
0.5828035 0.13400622 -0.0004797686 0.1506486 0.058942474 -0.14884116 -0.0933776 -0.034195017
-0.030056901 0.044163506 -0.24892473 0.011137365 0.18381418 0.2957705 0.1294602 0.26369518
0.26205263 -0.37125084 -0.16331238 -0.21781258 0.2457896 0.25304246 -0.44442666 -0.024745965
-0.27254325 -0.2345654 -0.03569491 -0.32483557 0.058510356 0.1915149 -0.051530983 0.20884334
0.13274832 -0.05637885 -0.17131874 -0.16808541 -0.039749432 0.53412306 -0.04585725 0.056187693
-0.03134552 -0.30183485 -0.37741816 -0.28230146 -0.027853621 -0.035531003 0.12514205 -0.15010251
0.6597048 -0.115914874 0.3084558 -0.13677149 -0.37714976 -0.07097467 -0.13134952 -0.25645408
-0.09430413 -0.08489204 -0.25387964 -0.071958475 0.16825925 0.17218342 0.19152445 0.14368463
0.04721981 -0.12762758 0.34718394 -0.37444386 0.113915384 -0.25223556 0.24154446 0.13762681
0.019021196 -0.21673618 -0.0784381 -0.39896598 -0.10132214 0.17411508 -0.10597156 -0.27244127
0.4486249 -0.053797156 -0.3137513 -0.0955291 0.38996232 -0.18548399 -0.32592994 -0.67590636
-0.21352133 -0.08346597 0.00055772625 -0.20144334 -0.2504095 0.13836546 -0.047643974 -0.1428245
-0.20489709 0.163771 0.10063598 0.024551958 -0.19657029 -0.16417272 0.025645498 0.025235789
-0.085354365 0.12313654 -0.09557456 -0.41298896 -0.0654973 0.19183545 -0.28287694 -0.16739042
0.1447102 0.06408334 -0.0067518265 0.009952997 0.29181027 -0.048479777 0.0053150607 -0.031453837
-0.009253476 -0.07181593 -0.56002676 0.07855563 0.033033453 0.041405413 -0.39406592 -0.06901605
-0.5585915 0.22276664 -0.50084156 -0.3408518 -0.13554604 0.27019155 0.090301335 0.032875836
0.2578335 0.16928145 0.10999804 -0.22050884 -0.042845126 0.39989856 -0.023010116 0.24174096
0.42096075 -0.0441777 0.030987233 -0.043626785 0.39312094 0.19347909 0.2316296 -0.14521071
0.37933934 -0.2759389 -0.251588 -0.5282399 -0.060116876 0.071279824 -0.19154893 -0.1917446
-0.32909688 0.34670034 0.2622489 -0.047027957 -0.07951113 -0.33148572 -0.27310842 -0.13731447
0.15799557 0.2818959 -0.024209822 -0.3131766 -0.38304847 -0.15949276 -0.33689117 0.09296017
-0.4361186 0.1250716 -0.20468916 -0.023688879 -0.08992813 -0.30113202 -0.26227233 -0.06451017
0.04347891 -0.045862116 0.30903026 0.1769741 0.18537754 0.34617394 0.32553098 0.107713975
00000000: 1e5f e23d b2ba ab3e b064 0abe aecb bebd
00000010: f61d 60bf c1fb c63e 4a16 453d b47a 0ebe
00000020: 7ad6 f7ba cdab 8b3d edc3 e3bc 0c41 f7bd
00000030: 20a4 933e 6c33 c5bd bc05 aabd a5c6 573e
00000040: 5e08 dfbe c4a4 97be 19da ad3d 54c4 e03d
00000050: 9809 8e3c feaa eb3d bb69 a83d 644f 223e
00000060: 860f 923d d84b ea3d 4839 0f3d e217 a33d
00000070: 33a9 f4bd bc98 283d e29b 82bd 658d 1f3e
00000080: 34e0 8e3e 99e2 1b3e 31c7 943e a19e d5bd
00000090: a98b 863e bb1c 9b3d 1466 613d 0ce9 07be
000000a0: c967 963d dfc8 21be 5a7b a23d 1137 eabd
000000b0: 1d11 793e ee4f 923e aebe 9abd 84a6 9cbe
000000c0: 9e12 a83e 072d b7be 8986 c9bd c8d9 663d
000000d0: 0a73 babe bc8c bebe 924b a3be 240d b6bd
000000e0: bd53 dfbe 5cef 433c 8d1d 6b3c 489e b1bd
000000f0: 92da 7f3d 41c9 9abd a3a3 0a3f dc88 333e
00000100: 9c32 153f ed38 093e 7489 fbb9 a043 1a3e
00000110: aa6d 713d d169 18be c13c bfbd 1310 0cbd
00000120: e439 f6bc cbe4 343d 20e6 7ebe 7f79 363c
00000130: c939 3c3e 3b6f 973e 3791 043e 0e03 873e
00000140: c32b 863e 9714 bebe 5c3b 27be 430a 5fbe
00000150: 45b0 7b3e c88e 813e e48b e3be 0db8 cabc
00000160: ca8a 8bbe ea31 70be d334 12bd d950 a6be
00000170: 8ea8 6f3d 7b1c 443e 2712 53bd 07db 553e
00000180: 2def 073e 82ed 66bd 2e6e 2fbe 951e 2cbe
00000190: 4dd0 22bd 4abc 083f d0d4 3bbd 1125 663d
000001a0: 2964 00bd 198a 9abe f43c c1be d189 90be
000001b0: 472d e4bc f588 11bd 3d25 003e 79b4 19be
000001c0: 6ae2 283f c764 edbd ebed 9d3e d30d 0cbe
000001d0: c619 c1be 2b5b 91bd 7d80 06be f34d 83be
000001e0: 8622 c1bd e1db adbd 83fc 81be f75e 93bd
000001f0: 274c 2c3e da50 303e fc1e 443e 1022 133e
00000200: 8f69 413d ceb0 02be 18c2 b13e 1bb7 bfbe
00000210: 784c e93d 0525 81be 6e57 773e 0bee 0c3e
00000220: 57d2 9b3c 17f0 5dbe 28a4 a0bd 4545 ccbe
00000230: fb81 cfbd 394b 323e 9e07 d9bd 6c7d 8bbe
00000240: 2ab2 e53e 685a 5cbd 03a4 a0be c3a4 c3bd
00000250: 24a9 c73e 84ef 3dbe 4ae0 a6be 3308 2dbf
00000260: 56a5 5abe 35f0 aabd 6034 123a 2a47 4ebe
00000270: ad35 80be adaf 0d3e 5426 43bd 9640 12be
00000280: 8bd0 51be 96b3 273e 3d1a ce3d 3021 c93c
00000290: b949 49be e51c 28be 8216 d23c 49bb ce3c
000002a0: 45ce aebd 032f fc3d 98bc c3bd 4a73 d3be
000002b0: 7323 86bd 8370 443e 3fd5 90be 6568 2bbe
000002c0: e92e 143e 203e 833d 6d3e ddbb e511 233c
000002d0: 2868 953e bb92 46bd f629 ae3b bdd5 00bd
000002e0: e49b 17bc 3b14 93bd ea5d 0fbf c6e1 a03d
000002f0: 164e 073d b998 293d 02c3 c9be 4958 8dbd
00000300: daff 0ebf f01c 643e 2737 00bf 2184 aebe
00000310: 95cc 0abe 8c56 8a3e e8ef b83d d0a8 063d
00000320: c102 843e 1e58 2d3e a746 e13d 12cd 61be
00000330: 5f7e 2fbd 81bf cc3e b67f bcbc f18a 773e
00000340: 2b88 d73e adf3 34bd f0d8 fd3c 00b2 32bd
00000350: 2647 c93e 621f 463e 4f30 6d3e 1eb2 14be
00000360: c438 c23e dd47 8dbe 24d0 80be bb3a 07bf
00000370: 1d3d 76bd 28fb 913d 6725 44be b258 44be
00000380: 637f a8be b582 b13e 7d45 863e 63a0 40bd
00000390: bbd6 a2bd 7fb8 a9be ded4 8bbe 2a9c 0cbe
000003a0: 97c9 213e a954 903e ad53 c6bc af58 a0be
000003b0: ee1e c4be 1252 23be 007d acbe e761 be3d
000003c0: f04a dfbe c512 003e 099a 51be 2e0f c2bc
000003d0: 3d2c b8bd fa2d 9abe 8f48 86be e81d 84bd
000003e0: f116 323d ead9 3bbd 3739 9e3e b338 353e
000003f0: 9cd3 3d3e b63d b13e ffab a63e 2599 dc3d
