player-model/dqn_3.pt (torch, 704008 bytes, 23 tensors)

weight f4 [16, 2, 3, 3]
0.06639676 0.09044436 -0.09254365 -0.19240288 -0.795064 0.23320065 0.0022929388 -0.06555366
-0.10254483 0.067786455 0.009514305 0.03869642 -0.12253979 0.08595907 0.4108482 0.043449897
0.11685001 -0.08634618 -0.0311445 0.04048469 -0.047466714 -0.60561204 0.16098854 0.076167524
-0.022919798 -0.11652017 -0.015681 -0.49718824 0.50711 -0.08973187 0.08873117 -0.078715146
0.12094709 -0.030173076 0.082469374 0.14399461 0.009538199 0.034872998 0.038420346 0.007438641
0.22352086 -0.016746841 0.0025302523 0.31401387 0.027117187 -0.007996665 -0.029036582 -0.040659223
-0.008617057 -0.706064 0.37840682 -0.049237054 0.016543165 -0.0073458333 -0.09169907 -0.20600255
0.027544336 -0.1496543 -0.46377018 -0.039511424 0.03880326 0.20968276 0.023038749 0.1301416
-0.36474022 0.37431192 0.058305062 -0.23751347 -0.24615651 -0.06510088 0.035483297 0.1563347
-0.019973075 -0.012480467 -0.05055222 0.61821985 -0.06170041 0.04075829 -0.283774 0.07217443
0.073502675 0.0076789814 0.044540297 -0.03384027 -0.47582027 -0.37558925 0.10938559 -0.07098874
0.13102673 0.04375995 -0.19427112 0.09888431 0.08077428 -0.05188544 0.07994602 -0.079854816
0.11091897 0.28021815 0.13319466 0.011963958 0.22821587 -0.065128304 -0.070399344 0.3167574
-0.63771653 0.12922975 0.057881363 0.11360558 -0.7043006 0.07997643 0.041848864 0.5195577
-0.044829875 0.043668002 0.0975306 -0.019012276 0.08792498 0.014237478 0.06899458 0.053037874
0.06219987 -0.15601802 0.048869077 -0.016193591 -0.012789298 -0.13003634 0.11319334 0.052807216
0.05059731 -0.4970099 0.22304453 0.1016521 -0.033360735 0.23713186 0.066140786 0.15762803
0.25467387 0.055516306 -0.06329503 -0.5316192 0.17069064 0.013459578 0.07942691 0.109005615
-0.027558122 -0.006854929 -0.019828236 -0.015873235 0.38059407 -0.05536929 -0.008764008 -0.49087137
0.01256589 -0.03339264 -0.026185442 0.0052463203 -0.0040830453 0.35576975 0.35287094 -0.006180919
-0.015238121 0.027709669 -0.025768992 -0.036424536 -0.030293752 0.64263564 0.0012679186 0.027451148
0.30576918 -0.02063229 -0.057699583 0.07921987 0.00035255618 -0.020536184 0.16302383 0.27191606
0.0053703156 -0.008247511 0.05083088 -0.030324763 -0.39348677 0.0015134345 -0.002946564 0.38395584
-0.027031256 -0.012800121 -0.027275443 0.0009329242 0.011327067 0.3961975 0.3641303 -0.02050368
0.034886558 -0.011455564 -0.010843694 0.026955262 -0.03125768 -0.00788821 0.26357076 0.31935102
0.13133581 -0.2206302 0.2740141 0.04486201 -0.070768066 -0.08312475 -0.043158818 0.49616677
-0.39779776 -0.12589237 0.23143756 -0.00078045356 0.027764326 0.11093419 0.0006753876 -0.019707078
0.13760434 0.1571273 0.16443141 0.23962317 -0.305596 -0.3790569 -0.006607644 0.16259398
0.17012985 -0.10593477 0.3656094 0.020878153 -0.14538991 0.33366266 0.112336345 -0.100729175
0.21133892 -0.08618137 0.0423093 0.041332863 -0.008791921 -0.10733894 0.34905964 0.010533859
0.043444227 0.3709791 0.026104707 -0.05399163 -0.07760254 -0.14006923 -0.040505156 0.22418861
-0.59250975 -0.0033617578 -0.09314251 0.00986256 0.4868104 0.0047709253 -0.008432876 -0.39254904
00000000: 06fb 873d e53a b93d 8687 bdbd 4305 45be
00000010: 5089 4bbf 27cc 6e3e 2145 163b ff40 86bd
00000020: 0603 d2bd a0d3 8a3d e3e1 1b3c 2380 1e3d
00000030: 24f6 fabd 4f0b b03d b25a d23e 85f8 313d
00000040: 0f4f ef3d 44d6 b0bd c022 ffbc 46d3 253d
00000050: 756c 42bd 6409 1bbf 2eda 243e b8fd 9b3d
00000060: 4dc2 bbbc 20a2 eebd 7175 80bc 758f febe
00000070: f6d1 013f 58c5 b7bd b0b8 b53d 6835 a1bd
00000080: 1cb3 f73d 872d f7bc b4e5 a83d 5373 133e
00000090: 1b46 1c3c fdd6 0e3d a75e 1d3d d8bf f33b
000000a0: a7e2 643e ac30 89bc 97d2 253b 6dc6 a03e
000000b0: dd24 de3c 7204 03bc 20de edbc 498a 26bd
000000c0: 8f2e 0dbc 9cc0 34bf 8abe c13e cbac 49bd
000000d0: 8885 873c 51b5 f0bb b9cc bbbd 55f2 52be
000000e0: a9a4 e13c fa3e 19be 4973 edbe bbd6 21bd
000000f0: 2bf0 1e3d 14b7 563e c2bb bc3c d743 053e
00000100: 3bbf babe d0a5 bf3e 4ad1 6e3d bb36 73be
00000110: 7410 7cbe 9c53 85bd ef56 113d 3416 203e
00000120: 939e a3bc df7a 4cbc d80f 4fbd a843 1e3f
00000130: 92b9 7cbd 2af2 263d d34a 91be 30d0 933d
00000140: 9288 963d f79f fb3b e36f 363d 189c 0abd
00000150: b79e f3be 3c4d c0be 8d05 e03d 8b62 91bd
00000160: df2b 063e a23d 333d 02ef 46be db83 ca3d
00000170: fc6c a53d d485 54bd bdba a33d ec8a a3bd
00000180: 7c29 e33d c178 8f3e 2e64 083e 7a04 443c
00000190: 6cb1 693e fd61 85bd 882d 90bd 072e a23e
000001a0: 6441 23bf ce54 043e 0215 6d3d 0baa e83d
000001b0: 0b4d 34bf afca a33d b769 2b3d bc01 053f
000001c0: 889f 37bd 38dd 323d 20be c73d a2bf 9bbc
000001d0: 0312 b43d 5044 693c 084d 8d3d 3e3e 593d
000001e0: 4ac5 7e3d 30c3 1fbe f12a 483d 6ca8 84bc
000001f0: 348a 51bc 3f28 05be e9d1 e73d 614c 583d
00000200: 203f 4f3d 1578 febe c965 643e fa2e d03d
00000210: 44a5 08bd b2d2 723e d274 873d 3e69 213e
00000220: 9d64 823e 1165 633d d3a0 81bd 3218 08bf
00000230: 87c9 2e3e 9085 5c3c 93aa a23d 563e df3d
00000240: 92c1 e1bc 509f e0bb d36e a2bc 9608 82bc
00000250: 3add c23e e9ca 62bd ea96 0fbc 7e53 fbbe
00000260: 2ae1 4d3c b9c6 08bd da82 d6bc 53e9 ab3b
00000270: 11cb 85bb 7427 b63e 80ab b43e 4e89 cabb
00000280: 50a9 79bc 63ff e23c 7e19 d3bc e531 15bd
00000290: 9a2a f8bc c583 243f 4a30 a63a 3be1 e03c
000002a0: c78d 9c3e 0c05 a9bc 6656 6cbd 073e a23d
000002b0: 4ad7 b839 803b a8bc b8ef 263e 9538 8b3e
000002c0: 79f9 af3b 9220 07bc 0a34 503d a36b f8bc
000002d0: 1977 c9be 6f5e c63a 241b 41bb dc95 c43e
000002e0: a770 ddbc 99b7 51bc c070 dfbc 7c8f 743a
000002f0: 2a95 393c 66da ca3e 496f ba3e 55f7 a7bc
00000300: 35e5 0e3d 1eb0 3bbc c0a9 31bc 48d1 dc3c
00000310: 0e08 00bd 8d3d 01bc bff2 863e fa81 a33e
00000320: e57c 063e e2ec 61be 934b 8c3e 3ac1 373d
00000330: d9ee 90bd 4f3d aabd 4dc7 30bd 9209 fe3e
00000340: 26ac cbbe eee9 00be f8fd 6c3e 5a97 4cba
00000350: 0372 e33c 7731 e33d 7f0c 313a bd70 a1bc
00000360: 27e8 0c3e fbe5 203e b560 283e c75f 753e
00000370: 1477 9cbe bf13 c2be ef84 d8bb 097f 263e
00000380: 8536 2e3e 54f4 d8bd 2831 bb3e a908 ab3c
00000390: 18e1 14be d5d5 aa3e 9910 e63d 194b cebd
000003a0: 3b69 583e dc7f b0bd 844c 2d3d a64c 293d
000003b0: fd0b 10bc 85d4 dbbd f2b7 b23e 3596 2c3c
000003c0: 93f2 313d f9f0 bd3e 8ad9 d53c 5426 5dbd
000003d0: 15ee 9ebd 4f6e 0fbe bce8 25bd b391 653e
000003e0: b8ae 17bf f050 5cbb 80c1 bebd 9396 213c
000003f0: 363f f93e 6c55 9c3b 0c2a 0abc 30fc c8be

bias f4 [16]
0.013621163 0.015498383 -0.3035813 0.24355395 -0.051820103 0.022995386 -0.10566284 -0.033976287
-0.41236678 -0.50422806 -0.4251382 0.0014541977 -0.06955272 -0.31085727 0.2704116 -0.20238285
00000000: 4c2b 5f3c eeec 7d3c 026f 9bbe 3566 793e
00000010: 5141 54bd d260 bc3c c265 d8bd b82a 0bbd
00000020: bd21 d3be 1715 01bf b7ab d9be c79a be3a
00000030: a871 8ebd af28 9fbe 6473 8a3e 733d 4fbe

weight f4 [16]
0.21596956 0.2189128 0.41391397 0.26685077 0.3889805 0.31213692 0.17022958 0.31647438
0.540414 0.7219461 0.785057 0.20344323 0.28903612 0.32415172 0.56536025 0.3414934
00000000: 2027 5d3e ad2a 603e 88ec d33e aaa0 883e
00000010: 7428 c73e 69d0 9f3e aa50 2e3e ee08 a23e
00000020: 9258 0a3f 76d1 383f 7ff9 483f 6c53 503e
00000030: 8bfc 933e 37f7 a53e 73bb 103f 39d8 ae3e

bias f4 [16]
-0.1367354 0.35469517 0.08897476 0.0599627 0.057009786 -0.010646041 -0.11048223 -0.017315542
-0.14095448 -0.2896067 0.066699706 -0.21134071 -0.578033 0.14836405 0.3172627 -0.1424278
00000000: 5d04 0cbe 9b9a b53e 6638 b63d 739b 753d
00000010: 1883 693d bb6c 2ebc 8244 e2bd 53d9 8dbc
00000020: 5f56 10be 5447 94be db99 883d b369 58be
00000030: f8f9 13bf bfec 173e 4270 a23e 98d8 11be

running_mean f4 [16]
0.057013094 0.14386806 0.028857317 0.10160275 0.08752843 0.27954334 0.08122924 0.22900572
0.04701028 0.28766745 0.09507152 0.29491886 0.37819424 0.012285555 0.100736074 0.09839434
00000000: 9086 693d 2652 133e 2e66 ec3c 1a15 d03d
00000010: 1b42 b33d 4e20 8f3e 845b a63d 7a80 6a3e
00000020: da8d 403d 2649 933e dbb4 c23d 9bff 963e
00000030: ada2 c13e 5a49 493c b74e ce3d f982 c93d

running_var f4 [16]
0.016002141 0.04899774 0.010488786 0.028297625 0.033878457 0.054496747 0.027822983 0.06328116
0.0073891515 0.13155869 0.019276464 0.09425688 0.07970149 0.003874664 0.016875708 0.022009978
00000000: ec16 833c dbb1 483d 28d9 2b3c 6cd0 e73c
00000010: 23c4 0a3d fb37 5f3d 06ed e33c 8e99 813d
00000020: b220 f23b 52b7 063e ade9 9d3c c009 c13d
00000030: 893a a33d 13ee 7d3b ed3e 8a3c 454e b43c

weight f4 [32, 16, 3, 3]
0.040795293 0.0041504726 -0.0034324427 0.1377785 0.18932138 0.34188733 0.022131963 -0.17662333
0.19800854 -0.07139768 -0.049105894 -0.16361213 -0.10337012 -0.035945218 -0.013437986 -0.24972774
-0.062647805 0.062342186 0.34688962 -0.1350721 -0.10329537 -0.0010156663 0.22430816 0.0125793815
0.12948705 0.14045188 -0.47718546 -0.090433925 0.06835859 -0.018274847 0.6360874 0.08657586
0.23369919 0.1518523 0.1276839 0.26986897 -0.04740395 -0.08587995 0.037512027 -0.17940308
0.11011168 -0.096722096 -0.5812829 -0.24205233 -0.030299064 -0.10365489 0.046859007 -0.42441267
-0.010347232 0.0779599 -0.27486515 -0.30510834 -0.21520065 -0.16285986 -0.08453388 0.057162862
-0.33872864 0.20002012 0.09523508 0.012003227 -0.2213688 -0.09165602 0.08043286 0.21442805
0.23783843 -0.103581406 0.1943604 0.10840027 0.31954727 -0.101942375 -0.17134973 -0.1316025
0.11046568 -0.023117734 0.072237834 0.14878625 -0.18852109 0.10558272 0.19527557 0.077439554
0.03566772 0.034384042 0.09588558 0.082702376 -0.2356364 -0.14816132 -0.11787483 -0.15548362
0.21353492 0.087666504 -0.18362273 0.088268094 0.12178504 -0.1682945 -0.22505376 -0.2042579
-0.24218746 -0.25263602 -0.1923781 0.09711595 0.19478528 0.4834493 -0.1894193 -0.0737867
0.37425622 0.52547276 -0.059068453 -0.3438839 0.13623388 -0.086378805 0.09436465 0.09633259
-0.041830726 -0.061352696 -0.28312322 0.14976019 0.14867377 -0.059609707 -0.1184078 -0.13296378
0.10557182 0.08222253 0.0108906 0.04627741 -0.23884927 -0.48003474 -0.0020041447 -0.28649592
-0.075183794 0.06867332 0.30613172 0.26397318 0.46473935 0.48698133 0.24962038 -0.022950957
0.2629852 -0.46099347 0.25514793 0.0560802 -0.21161732 -0.13450173 -0.36991495 -0.4001494
-0.21036929 -0.13222796 0.04712238 -0.114483 0.123105235 0.07866328 -0.060345076 -0.18139513
-0.049601205 -0.19379647 -0.27221054 -0.1361138 -0.19361909 -0.36211696 -0.18691534 0.044468574
-0.16698143 -0.38324666 -0.005942532 0.08503274 -0.11490388 -0.72089916 0.4732718 -0.024305932
0.027050829 -0.023731297 0.016885746 0.04135826 0.13162048 0.1765053 -0.10246703 -0.016779821
-0.1245864 0.31283945 -0.11817435 0.0438711 0.030415663 -0.22136419 0.18808189 0.124362044
-0.03785854 -0.10972002 -0.08422148 0.13883813 0.1371683 -0.083167076 0.057650473 -0.11207294
0.44050097 -0.45344785 0.20377783 0.13247883 -0.25359306 -0.13004328 0.08218232 0.120200746
0.19627774 -0.084154144 0.31176618 0.05675961 0.17478602 -0.14537364 -0.2271819 -0.014922951
0.011499211 -0.15802622 -0.18017952 -0.061752636 -0.15679257 0.004046874 -0.06832268 -0.060383826
0.0760993 0.21847378 -0.08225067 -0.4017275 -0.40201402 0.10582519 0.04733158 0.0663032
0.00089056016 -0.084744334 -0.036056012 -0.016389696 0.021385834 0.17431782 0.39247918 -0.022545928
0.08404574 -0.058919426 -0.02765538 0.010311647 -0.17174192 -0.17112717 -0.04018507 -0.12205904
-0.040055383 -0.22099566 -0.3479731 -0.092568696 -0.0003110256 -0.26922393 -0.025323218 -0.053826675
-0.14986289 -0.08641456 0.33767655 -0.23402122 0.09127757 -0.113298945 0.09902967 0.17032158
00000000: f718 273d b000 883b d5f2 60bb cf15 0d3e
00000010: 77dd 413e db0b af3e 174e b53c bfdc 34be
00000020: c0c2 4a3e f238 92bd 4323 49bd f089 27be
00000030: b7b3 d3bd 4b3b 13bd 002b 5cbc a1b8 7fbe
00000040: 7e4d 80bd 855a 7f3d 849b b13e 5750 0abe
00000050: 868c d3bd 1b20 85ba 0ab1 653e c019 4e3c
00000060: 4198 043e 9ed2 0f3e a751 f4be 6c35 b9bd
00000070: 97ff 8b3d 22b5 95bc a0d6 223f af4e b13d
00000080: d74e 6f3e 2b7f 1b3e 91bf 023e 442c 8a3e
00000090: a52a 42bd d4e1 afbd 36a6 193d 71b5 37be
000000a0: 3c82 e13d 3c16 c6bd f5ce 14bf 91dc 77be
000000b0: be35 f8bc 0449 d4bd 3bef 3f3d 9e4c d9be
000000c0: 7087 29bc 71a9 9f3d 20bb 8cbe 2937 9cbe
000000d0: 8f5d 5cbe bcc4 26be 1920 adbd 9b23 6a3d
000000e0: d76d adbe 13d2 4c3e 9c0a c33d 2fa9 443c
000000f0: 81ae 62be 27b6 bbbd fcb9 a43d 0793 5b3e
00000100: eb8b 733e 7d22 d4bd 6a06 473e f600 de3d
00000110: b39b a33e 2ac7 d0bd 4e76 2fbe cec2 06be
00000120: d53b e23d 6761 bdbc 6ef1 933d 6c5b 183e
00000130: ac0b 41be c13b d83d 52f6 473e a198 9e3d
00000140: 5118 123d 48d6 0c3d a95f c43d dd5f a93d
00000150: ab4a 71be 9ab7 17be 5c68 f1bd 1937 1fbe
00000160: e6a8 5a3e 7f8a b33d 9907 3cbe e7c5 b43d
00000170: 6f6a f93d 6555 2cbe 7e74 66be fc28 51be
00000180: fdff 77be 8259 81be c4fe 44be bae4 c63d
00000190: cb75 473e ab86 f73e 22f7 41be 7b1d 97bd
000001a0: 839e bf3e 6285 063f c3f1 71bd 8d11 b0be
000001b0: e580 0b3e 5fe7 b0bd 4142 c13d 054a c53d
000001c0: b256 2bbd f74c 7bbd 87f5 90be bc5a 193e
000001d0: f03d 183e 4f29 74bd ca7f f2bd a827 08be
000001e0: 0a36 d83d 4964 a83d 7d6e 323c 628d 3d3d
000001f0: e794 74be 1dc7 f5be f857 03bb 98af 92be
00000200: f6f9 99bd 99a4 8c3d 4cbd 9c3e 7e27 873e
00000210: 51f2 ed3e 9e55 f93e 7c9c 7f3e a503 bcbc
00000220: ffa5 863e 5607 ecbe c0a2 823e 5ab4 653d
00000230: 36b2 58be d2ba 09be 7e65 bdbe 62e0 ccbe
00000240: 0c6b 57be c466 07be 6603 413d 1076 eabd
00000250: 991e fc3d 371a a13d 662c 77bd a5bf 39be
00000260: a22a 4bbd 9572 46be 2e5f 8bbe 6a61 0bbe
00000270: 1544 46be 6567 b9be bc66 3fbe ae24 363d
00000280: 2efd 2abe e838 c4be 92b9 c2bb a525 ae3d
00000290: ba52 ebbd d98c 38bf ae50 f23e 3c1d c7bc
000002a0: b399 dd3c 2368 c2bc fa53 8a3c 4767 293d
000002b0: 85c7 063e cebd 343e 3cda d1bd d675 89bc
000002c0: 2827 ffbd 7e2c a03e 6505 f2bd 2fb2 333d
000002d0: 452a f93c 4bad 62be 8a98 403e 87b1 fe3d
000002e0: 8e11 1bbd e4b4 e0bd 507c acbd 952b 0e3e
000002f0: d975 0c3e 8053 aabd e722 6c3d 7f86 e5bd
00000300: 5889 e13e 512a e8be 23ab 503e 88a8 073e
00000310: f3d6 81be 112a 05be 344f a83d cf2b f63d
00000320: 08fd 483e 0259 acbd d19f 9f3e c47c 683d
00000330: 1bfb 323e d4dc 14be 5fa2 68be 657f 74bc
00000340: 3067 3c3c a0d1 21be fb80 38be 55f0 7cbd
00000350: 3b8e 20be a49b 843b c3ec 8bbd 0855 77bd
00000360: f3d9 9b3d 97b7 5f3e 0a73 a8bd 3aaf cdbe
00000370: c8d4 cdbe e1ba d83d c2de 413d f9c9 873d
00000380: 7b74 693a 708e adbd 78af 13bd af43 86bc
00000390: 5831 af3c 5f80 323e 08f3 c83e 3db2 b8bc
000003a0: 2c20 ac3d 7f55 71bd 898d e2bc 2ff2 283c
000003b0: 1ddd 2fbe f63b 2fbe 1a99 24bd 17fa f9bd
000003c0: 1d11 24bd b04c 62be 8829 b2be a894 bdbd
000003d0: 2611 a3b9 b8d7 89be a372 cfbc 5c79 5cbd
000003e0: a875 19be 1efa b0bd f1e3 ac3e 42a3 6fbe
000003f0: bcef ba3d 4709 e8bd 11d0 ca3d c868 2e3e

bias f4 [32]
-0.2871439 -0.48712048 -0.07610509 -0.22154832 -0.52842265 -0.38862363 -0.23538029 -0.3793137
-0.15261322 -0.17507468 -0.4862317 -0.4274293 -0.2619021 -0.39270845 -0.28269207 -0.5716634
-0.12951235 -0.21646848 -0.396127 -0.25970134 -0.4696694 -0.30906963 -0.50402 -0.08661821
-0.011563782 0.03553739 -0.26315704 -0.43519774 -0.5349134 -0.27881202 -0.48772538 -0.5659759
00000000: 8604 93be db67 f9be fcdc 9bbd 90dd 62be
00000010: b546 07bf adf9 c6be 8807 71be 6835 c2be
00000020: a446 1cbe c746 33be 5df3 f8be 03d8 dabe
00000030: 0818 86be 1511 c9be 04bd 90be 8858 12bf
00000040: e39e 04be eaa9 5dbe 28d1 cabe 93f7 84be
00000050: 8278 f0be 603e 9ebe 7407 01bf e364 b1bd
00000060: 0476 3dbc a78f 113d 85bc 86be 3dd2 debe
00000070: 16f0 08bf 73c0 8ebe 24b7 f9be cce3 10bf

weight f4 [32]
0.032242745 0.2986276 0.11006174 0.10955742 0.39149013 0.105549455 0.21916202 0.26092038
0.12024863 0.119256996 0.33371392 0.5927248 0.07599689 0.29445407 0.12063971 0.43957278
0.17166309 0.09682673 0.18725285 0.15596545 0.23589534 0.14119488 0.16285004 0.14128904
0.21893966 0.11012648 0.26784143 0.2218304 0.6267278 0.31887025 0.33053863 0.08793686
00000000: f810 043d b7e5 983e 0d68 e13d a45f e03d
00000010: 6571 c83e 502a d83d 026c 603e 5b97 853e
00000020: ea44 f63d 033d f43d 8ddc aa3e d0bc 173f
00000030: 42a4 9b3d afc2 963e f411 f73d af0f e13e
00000040: 73c8 2f3e 184d c63d 36bf 3f3e 68b5 1f3e
00000050: 8c8e 713e 6495 103e 29c2 263e 13ae 103e
00000060: b831 603e fe89 e13d 8322 893e 8227 633e
00000070: 3c71 203f f642 a33e 5c3c a93e 3e18 b43d

bias f4 [32]
0.031022923 0.024236009 -0.05695418 -0.024232468 -0.035070196 -0.04092722 0.012655257 -0.04475568
-0.03846866 0.015197874 0.104670145 0.20263302 -0.0019391219 -0.062463712 0.022561489 0.025076969
-0.030332278 0.016810577 0.084002115 0.015699731 0.11507138 0.030516902 0.009229888 -0.10594131
-0.024862047 -0.015044972 0.09873595 0.11910872 0.28984782 0.18122204 0.054748517 0.03359394
00000000: c923 fe3c 988a c63c c948 69bd 2b83 c6bc
00000010: c4a5 0fbd 4da3 27bd ff57 4f3c bb51 37bd
00000020: 5091 1dbd 8100 793c 4d5d d63d 087f 4f3e
00000030: 222a feba f3d9 7fbd dfd2 b83c 376e cd3c
00000040: 667b f8bc 56b6 893c 4d09 ac3d b99c 803c
00000050: 8baa eb3d 95fe f93c f538 173c c2f7 d8bd
00000060: 7eab cbbc 307f 76bc 1336 ca3d 46ef f33d
00000070: ef66 943e 4592 393e fb3f 603d cd99 093d

running_mean f4 [32]
0.37052926 0.019025404 0.103860386 0.2846707 0.013161352 0.060477436 0.24041611 0.037762124
0.25783944 0.17042513 0.097975865 0.05928817 0.08639852 0.03622069 0.10059831 0.016719975
0.297835 0.11871399 0.17493035 0.01925412 0.36477107 0.13615765 0.049756728 0.099110745
0.8017804 0.1465445 0.108935885 0.45409873 0.17138922 0.371165 0.013889884 0.08619853
00000000: 03b6 bd3e 2adb 9b3c c1b4 d43d 5cc0 913e
00000010: b6a2 573c 30b7 773d a42f 763e 75ac 1a3d
00000020: 8803 843e ed83 2e3e 92a7 c83d 27d8 723d
00000030: b5f1 b03d 255c 143d 7d06 ce3d 54f8 883c
00000040: d47d 983e 5220 f33d f120 333e d1ba 9d3c
00000050: 46c3 ba3e e96c 0b3e b6cd 4b3d 93fa ca3d
00000060: 7b41 4d3f c30f 163e c719 df3d a17f e83e
00000070: a880 2f3e 5709 be3e 6592 633c db88 b03d

running_var f4 [32]
0.45371637 0.020649549 0.067285806 0.3179872 0.013671126 0.05318727 0.28034788 0.049124673
0.33139217 0.16806293 0.09771749 0.046921816 0.10070709 0.049714748 0.09591435 0.020537974
0.4113022 0.10093579 0.19455898 0.015264007 0.50433564 0.16821274 0.046793457 0.10279684
0.7214737 0.09719112 0.092129834 0.46022388 0.1775135 0.7803814 0.021673666 0.08335392
00000000: 834d e83e 3e29 a93c 24cd 893d 38cf a23e
00000010: dcfc 5f3c e5da 593d c289 8f3e f436 493d
00000020: 3cac a93e b018 2c3e 1b20 c83d 1731 403d
00000030: 853f ce3d b1a1 4b3d be6e c43d 413f a83c
00000040: 3496 d23e 6cb7 ce3d 783a 473e e315 7a3c
00000050: 241c 013f f63f 2c3e 7faa 3f3d 2687 d23d
00000060: 80b2 383f 230c c73d 91ae bc3d 77a2 eb3e
00000070: 19c6 353e 13c7 473f f98c b13c 76b5 aa3d

weight f4 [128, 512]
0.13749321 0.024126893 -0.018031342 -0.041428678 0.061967615 0.1667373 -0.33110726 -0.24492207
-0.31125394 0.045770247 -0.054365467 -0.42624325 -0.06372306 0.32864767 -0.3095279 0.075961694
-0.047739096 -0.37226436 -0.5874039 -0.46447825 0.09282103 -0.30594292 -0.12115676 0.18816839
0.13080503 0.24450059 0.109106325 0.03585009 -0.08466372 -0.10575928 -0.06358807 0.0683237
-0.15089299 0.26671845 -0.08478328 -0.08352014 0.017931545 0.14394885 0.03498328 -0.04631484
0.06744337 0.26072598 0.013245463 0.03031978 0.25025037 0.10516345 -0.030076556 -0.23587482
0.05855895 0.31560263 -0.53340447 0.11746432 -0.32555845 -0.33391163 0.13114104 0.036551088
0.40276375 -0.10649314 -0.083532035 0.16543621 -0.035032947 0.21151514 0.24631654 0.14544833
-0.009981148 -0.22418782 -0.36943042 -0.025762998 -0.18094762 -0.3113845 -0.018644014 0.008328931
0.25262004 0.11668816 0.09872592 0.263041 0.122322544 0.25277218 0.14659955 0.06726735
0.04174433 0.0071824556 0.09762783 0.037530728 -0.0024769066 -0.2412166 -0.12237318 -0.02224387
0.09720087 0.19265263 0.075947836 0.24953645 0.17706649 0.12137635 0.35863292 0.10149231
0.13063945 0.18671203 0.32938826 -0.023257745 -0.065084696 0.01370492 -0.16552761 -0.14273627
0.0022720052 -0.18428417 -0.0303644 -0.28137657 0.3152906 0.06054451 -0.14733012 -0.56502146
-0.04262543 0.16041842 -0.07823696 -0.075602874 -0.06334243 -0.43910462 0.3851147 0.16135868
-0.17814796 0.36888528 0.11982823 -0.06997713 0.45115268 0.37704915 0.320155 0.036866356
0.16009232 -0.049333215 0.113245815 -0.07979816 0.0061467863 0.09743382 -0.2117613 0.056880586
0.0064244727 -0.0864965 -0.39121598 -0.13369273 -0.07609337 0.05581838 0.07077617 0.11810221
0.039771322 -0.36474884 0.3391837 -0.5264446 0.39606065 -0.14636485 0.022335878 -0.04020672
-0.22136135 0.15802233 0.059128266 -0.07584189 0.0012833461 -0.22170633 0.002958144 -0.012173269
-0.25954875 0.17403859 -0.11377269 -0.26208594 -0.14138621 -0.07500906 0.07526682 -0.36873236
0.19790883 -0.010614036 -0.29170144 -0.32252735 0.12603834 0.09547508 0.19879755 -0.21376203
-0.3573987 -0.22474831 -0.071729854 0.06297274 -0.49139538 -0.33733648 -0.1267411 -0.0115164835
-0.19428132 -0.2225156 -0.21162124 0.040675055 -0.46600443 0.00083997427 -0.31518713 -0.09594162
0.14166859 0.15895207 -0.026613515 0.19682172 0.060911007 0.20118564 0.466095 0.061594848
-0.28419578 -0.21007821 0.059937373 0.18431318 0.3383777 0.032857526 0.009737875 0.047325823
0.12639312 -0.13662839 -0.16716775 -0.28912288 -0.0647541 -0.1792322 -0.14734592 -0.13704585
0.09558442 0.111686386 0.0026264815 -0.15820596 0.012837967 0.35269618 0.15535317 -0.14027709
0.23724407 -0.103929296 -0.01727398 -0.30095506 -0.14987114 0.1748714 -0.15440018 -0.31524086
-0.16909066 0.06762127 0.19244124 0.07813115 -0.0602532 -0.3237833 -0.3035823 0.26146308
-0.37703666 -0.35180128 0.101952896 0.043201864 0.013639389 0.20436718 0.0058259387 -0.050874885
0.08530354 0.051438823 0.09256986 0.028760009 0.14776656 0.32932156 0.21392895 -0.005919866
00000000: 05cb 0c3e c3a5 c53c 77b6 93bc 1eb1 29bd
00000010: c1d1 7d3d 2fbd 2a3e e486 a9be dacc 7abe
00000020: ad5c 9fbe 9579 3b3d 53ae 5ebd 8e3c dabe
00000030: 3c81 82bd 8244 a83e 717a 9ebe ce91 9b3d
00000040: 128a 43bd 6f99 bebe 1a60 16bf 18d0 edbe
00000050: f418 be3d 8da4 9cbe 0921 f8bd 37af 403e
00000060: c1f1 053e 5d5e 7a3e 2373 df3d 8bd7 123d
00000070: 2c64 adbd 5298 d8bd 763a 82bd 4ced 8b3d
00000080: b183 1abe 528f 883e dba2 adbd 9b0c abbd
00000090: 2de5 923c 5467 133e a14a 0f3d a1b4 3dbd
000000a0: c01f 8a3d e07d 853e 8003 593c 3061 f83c
000000b0: d120 803e ef5f d73d 1c63 f6bc 2b89 71be
000000c0: 82db 6f3d ab96 a13e 328d 08bf 2291 f03d
000000d0: 99af a6be 77f6 aabe d649 063e 98b6 153d
000000e0: 0d37 ce3e 1319 dabd d812 abbd 1c68 293e
000000f0: b57e 0fbd 6d97 583e 673a 7c3e 68f0 143e
00000100: f887 23bc 7e91 65be fc25 bdbe ec0c d3bc
00000110: 554a 39be ca6d 9fbe 55bb 98bc 1276 083c
00000120: 6a57 813e 34fa ee3d d130 ca3d 4fad 863e
00000130: 3e84 fa3d 5b6b 813e 311e 163e 77c3 893d
00000140: 1afc 2a3d ce5a eb3b 1af1 c73d d2b9 193d
00000150: 9953 22bb 7c01 77be ca9e fabd c738 b6bc
00000160: 4011 c73d bb46 453e 8a8a 9b3d 7c86 7f3e
00000170: eb50 353e 2a94 f83d bc9e b73e 33db cf3d
00000180: 59c6 053e 7031 3f3e 94a5 a83e 0787 bebc
00000190: 204b 85bd 9a8a 603c 1280 29be 7529 12be
000001a0: ece5 143b fdb4 3cbe c3be f8bc 9710 90be
000001b0: c56d a13e 85fd 773d b5dd 16be 3fa5 10bf
000001c0: 0198 2ebd ba44 243e b33a a0bd aed5 9abd
000001d0: adb9 81bd 52d2 e0be c12d c53e 363b 253e
000001e0: 6b6c 36be 88de bc3e 8168 f53d 2b50 8fbd
000001f0: 7cfd e63e 960c c13e 5beb a33e 2d01 173d
00000200: 3eef 233e a011 4abd 6ced e73d 386d a3bd
00000210: fb6a c93b 628b c73d f4d7 58be 9efb 683d
00000220: 6284 d23b 1425 b1bd 764d c8be bfe6 08be
00000230: d7d6 9bbd d0a1 643d 19f3 903d 92df f13d
00000240: 41e7 223d 5cc0 babe 7ca9 ad3e 13c5 06bf
00000250: 76c8 ca3e abe0 15be bbf9 b63c cdaf 24bd
00000260: 8dac 62be 9bd0 213e 7b30 723d fe52 9bbd
00000270: f335 a83a fc06 63be 6cdd 413b 6472 47bc
00000280: 93e3 84be 2c37 323e a801 e9bd 2130 86be
00000290: 8cc7 10be 5a9e 99bd 7e25 9a3d 7dca bcbe
000002a0: 9da8 4a3e 7ee6 2dbc e459 95be 4e22 a5be
000002b0: 3210 013e 7088 c33d 9691 4b3e 6fe4 5abe
000002c0: f6fc b6be 6c24 66be 1ae7 92bd daf7 803d
000002d0: 2d98 fbbe 5eb7 acbe 6bc8 01be a2af 3cbc
000002e0: aff1 46be 21db 63be 3db3 58be e39a 263d
000002f0: 2298 eebe b831 5c3a 3560 a1be 0a7d c4bd
00000300: 9211 113e 55c4 223e 9604 dabc a28b 493e
00000310: d27d 793d 9c03 4e3e 01a4 ee3e e14a 7c3d
00000320: 1c82 91be be1e 57be e480 753d 98bc 3c3e
00000330: d83f ad3e 9d95 063d 9c8b 1f3c b9d8 413d
00000340: 336d 013e 50e8 0bbe 062e 2bbe ea07 94be
00000350: cc9d 84bd a588 37be d9e1 16be bf55 0cbe
00000360: c4c1 c33d d5bb e43d 0c21 2c3b be00 22be
00000370: 5656 523c 9894 b43e e714 1f3e cca4 0fbe
00000380: 1cf0 723e e2d8 d4bd 2982 8dbc c816 9abe
00000390: d277 19be 7d11 333e 151b 1ebe 4067 a1be
000003a0: 1a26 2dbe 057d 8a3d 510f 453e 3903 a03d
000003b0: 0fcc 76bd edc6 a5be 246f 9bbe 7dde 853e
000003c0: f30a c1be 4c1f b4be aecc d03d 70f4 303d
000003d0: be77 5f3c a145 513e 84e7 be3b 2f62 50bd
000003e0: 9fb3 ae3d 84b1 523d 4495 bd3d 1c9a eb3c
000003f0: 1e50 173e d69c a83e 3110 5b3e 6ffb c1bb

bias f4 [128]
-0.13592863 0.15697 -0.08297608 0.013627768 -0.06852963 -0.062039804 -0.06255822 -0.22948545
-0.16487853 -0.10395381 -0.200801 -0.12626052 0.103598066 0.043091267 -0.120796226 -0.14305294
-0.22378403 -0.119819015 -0.25947753 -0.1934427 -0.1051402 -0.176472 -0.03379979 -0.20768732
-0.03632034 -0.09376859 0.21731392 -0.07628429 -0.20474614 0.12534554 -0.17587712 -0.16950591
-0.14640872 0.093455195 -0.14976789 -0.07724751 0.04323826 -0.0014044526 -0.09796743 -0.1263102
0.14742179 0.19295439 -0.0702632 -0.07428978 -0.14799857 0.08120688 -0.1976048 -0.25921127
-0.08186972 -0.13036887 -0.07152143 -0.14660822 -0.08837538 0.014661298 -0.12483675 -0.05344013
-0.073829025 -0.17500955 -0.1944568 -0.24167289 0.10993651 -0.12945811 -0.13224019 -0.16971968
-0.25237316 -0.19250529 -0.18113384 -0.0921702 -0.16906801 -0.17945614 -0.15908097 -0.09572049
-0.20746829 -0.120480254 -0.21406372 0.01149569 -0.08067436 -0.3238133 -0.14106339 -0.1944772
-0.13680914 -0.03896563 -0.109685205 0.08164516 -0.07511887 0.008431432 -0.14858896 -0.0685498
-0.16702744 -0.10077689 -0.10544236 0.042590946 -0.15821944 -0.022781512 -0.21209672 0.6540582
-0.10256013 -0.12773466 0.067710176 0.032420605 -0.038555946 -0.0045657232 -0.24170116 -0.1481858
-0.08567318 -0.14693141 -0.1291645 -0.2713282 -0.20548113 0.06855988 -0.18716474 -0.15711564
-0.21260156 -0.04312318 0.025645576 -0.13816129 0.05699905 -0.16041991 -0.2509242 -0.115515605
0.091173805 -0.18304735 -0.2720127 -0.058965266 -0.23379314 -0.11935944 -0.057230186 -0.071893245
00000000: e030 0bbe bebc 203e 5def a9bd 0047 5f3c
00000010: 4359 8cbd 731d 7ebd 861e 80bd 3cfe 6abe
00000020: ebd5 28be bce5 d4bd c79e 4dbe 704a 01be
00000030: 392b d43d 7880 303d 0364 f7bd 787c 12be
00000040: a427 65be ac63 f5bd 3dda 84be d815 46be
00000050: bf53 d7bd 13b5 34be a671 0abd fcab 54be
00000060: a3c4 14bd bf09 c0bd 8a87 5e3e f03a 9cbd
00000070: f9a8 51be 955a 003e 2219 34be f592 2dbe
00000080: 2bec 15be 7065 bf3d c15c 19be f133 9ebd
00000090: 9a1a 313d 9c15 b8ba 26a3 c8bd 7657 01be
000000a0: bdf5 163e d695 453e 27e6 8fbd 3d25 98bd
000000b0: f08c 17be cb4f a63d ea58 4abe 57b7 84be
000000c0: 50ab a7bd 6b7f 05be d479 92bd 7720 16be
000000d0: 27fe b4bd f135 703c 69aa ffbd 0ae4 5abd
000000e0: ac33 97bd b435 33be af1f 47be 1979 77be
000000f0: 6526 e13d ab90 04be f969 07be ffca 2dbe
00000100: 0e37 81be 1b20 45be 267b 39be bbc3 bcbd
00000110: 2a20 2dbe 5ac3 37be 1fe6 22be 1b09 c4bd
00000120: 9172 54be 5abe f6bd 8533 5bbe 6b58 3c3c
00000130: 9938 a5bd dbca a5be ec72 10be 0825 47be
00000140: b217 0cbe 6d9a 1fbd a3a2 e0bd 9435 a73d
00000150: ecd7 99bd fd23 0a3c b427 18be d663 8cbd
00000160: 3e09 2bbe 1d64 cebd 2af2 d7bd d873 2e3d
00000170: 4704 22be 4ba0 babc e22f 59be 5c70 273f
00000180: 0c0b d2bd e0cc 02be a2ab 8a3d 78cb 043d
00000190: d7ec 1dbd 109c 95bb 8280 77be 05be 17be
000001a0: 6c75 afbd 3075 16be b343 04be 88eb 8abe
000001b0: a569 52be 1f69 8c3d 1da8 3fbe ece2 20be
000001c0: 39b4 59be eea1 30bd ac16 d23c 277a 0dbe
000001d0: d677 693d 1e45 24be 2379 80be 7293 ecbd
000001e0: 55b9 ba3d c470 3bbe 4045 8bbe 9085 71bd
000001f0: 7867 6fbe b972 f4bd 336a 6abd c43c 93bd

weight f4 [128, 128]
-0.112783395 -0.03567544 -0.028088545 -0.11227922 -0.13808312 0.07994069 0.16807196 -0.31598836
-0.0075099706 -0.15788841 0.14085189 -0.060989656 -0.087885186 0.0042549917 -0.05369063 -0.15786393
-0.106060214 -0.17842492 -0.1486139 -0.07790372 -0.21359004 -0.050942957 0.24864878 -0.1285045
-0.17514926 0.08833219 0.034433987 -0.29884195 0.02088446 -0.069062345 -0.25750184 -0.09030244
-0.21123278 -0.047016937 -0.04212635 -0.24891105 -0.13208377 -0.32086372 -0.20575124 -0.33631653
-0.32757413 -0.20923828 -0.17073384 -0.070884176 -0.22324547 0.0018849736 -0.17217267 -0.040705744
-0.33039185 -0.32252416 0.19377044 0.051506966 -0.04933234 -0.33526605 -0.15443154 -0.12897876
-0.2021514 -0.45245722 -0.2709581 -0.073025346 -0.06530712 0.17178829 0.02848083 -0.15692784
-0.14574085 -0.10414851 0.08109789 0.113177344 -0.10534582 -0.10839779 -0.36512554 -0.039162666
-0.18436196 -0.27360058 -0.11837165 -0.18620203 0.120355606 0.006452753 -0.23505822 0.07964022
-0.054381326 0.013972521 0.029032253 -0.18505557 -0.3351393 -0.04092016 0.18709135 0.062097993
-0.036450468 -0.35460722 -0.02674625 -0.084797375 0.10538416 -0.3209609 -0.20347114 -0.12307448
-0.15847476 -0.21360761 -0.12272296 -0.11145079 -0.20844188 -0.10076632 0.04766454 -0.06422348
-0.25054902 0.025619663 0.04079626 -0.23450997 -0.06204314 -0.07023732 -0.14567272 -0.31757492
-0.18175183 -0.16077977 -0.06327443 -0.095079295 -0.20806749 0.112183675 -0.029691493 -0.22365773
-0.07366575 -0.02188528 -0.285739 -0.13377604 -0.23697151 -0.103537954 -0.23206332 -0.10555185
0.02216457 -0.16791682 -0.10764682 -0.17958103 0.14949085 -0.036994655 -0.2302079 -0.08350638
-0.18819888 -0.022886734 -0.017592115 -0.33779788 -0.093912914 -0.03773092 -0.035893075 -0.0445366
-0.042348485 -0.041430324 -0.1573197 -0.080074765 0.042809132 -0.04862744 -0.31645483 -0.19285779
-0.1642127 0.069875024 0.016134994 -0.12582152 -0.009170635 -0.2889674 -0.3364539 -0.2570506
-0.3595062 0.047162972 0.0011587777 -0.012380949 0.043087605 0.14795369 -0.042650808 0.08110777
-0.18724486 0.031813696 -0.16701464 -0.2227315 -0.29238826 -0.36510456 -0.2700002 -0.13059887
-0.017215407 -0.1993925 -0.21968353 0.07293276 -0.24185006 -0.036769863 -0.053775344 -0.3037975
-0.30301377 -0.12765568 0.113775544 -0.35252205 -0.015147278 -0.020683628 -0.28874078 -0.1532507
-0.10607785 -0.4741782 -0.15313728 -0.081734724 -0.22309688 -0.09926736 -0.012392826 -0.03923442
-0.19123454 0.12708047 -0.055863388 0.06433267 -0.3146327 -0.15645579 0.08136514 -0.1723047
-0.12502262 -0.30162033 -0.06404891 -0.425946 -0.0672804 -0.30893293 -0.18244655 -0.27286258
-0.18415603 0.10067281 -0.15416165 0.05713455 -0.21050899 -0.13202368 0.041810717 -0.0693317
-0.08968882 0.08376445 -0.11379958 -0.31181514 -0.14321728 -0.25501427 0.077709705 0.15077265
-0.13134402 -0.046349294 -0.19864988 -0.23065819 -0.0978234 -0.2262485 -0.23546684 0.0341266
-0.07674128 0.022995038 -0.13387819 -0.17252705 0.03273764 -0.08999269 -0.04395954 -0.13151138
-0.13781203 -0.05698102 -0.08899789 -0.12128781 0.029720329 -0.106791295 0.06815242 0.11748771
00000000: fbfa e6bd 6920 12bd f319 e6bc a6f2 e5bd
00000010: a965 0dbe f2b7 a33d 0e1b 2c3e 3ac9 a1be
00000020: 3316 f6bb 80ad 21be 7a3b 103e 4ad0 79bd
00000030: 26fd b3bd 756d 8b3b b5ea 5bbd 15a7 21be
00000040: 1936 d9bd 06b5 36be 3e2e 18be fc8b 9fbd
00000050: 59b7 5abe 90a9 50bd c99d 7e3e af96 03be
00000060: 545a 33be 82e7 b43d a70a 0d3d d001 99be
00000070: e315 ab3c 8f70 8dbd 48d7 83be 7cf0 b8bd
00000080: 684d 58be d594 40bd ae8c 2cbd 8ae2 7ebe
00000090: f840 07be 4048 a4be 74b0 52be ae31 acbe
000000a0: ccb7 a7be 8f42 56be dad4 2ebe b92b 91bd
000000b0: 769a 64be 3811 f73a 084e 30be 11bb 26bd
000000c0: 1f29 a9be e321 a5be c26b 463e f8f8 523d
000000d0: b510 4abd fea7 abbe 4d23 1ebe 0213 04be
000000e0: c700 4fbe 79a8 e7be 05bb 8abe 508e 95bd
000000f0: bdbf 85bd 45e9 2f3e a150 e93c b1b1 20be
00000100: 173d 15be d04b d5bd a716 a63d 86c9 e73d
00000110: 8dbf d7bd a9ff ddbd bcf1 babe 0869 20bd
00000120: 62c9 3cbe 6015 8cbe d66c f2bd bfab 3ebe
00000130: 007d f63d 9e71 d33b 1ab3 70be 691a a33d
00000140: f4be 5ebd 00ed 643c 0cd5 ed3c 357f 3dbe
00000150: 6197 abbe e69b 27bd e094 3f3e 775a 7e3d
00000160: 164d 15bd 148f b5be f41a dbbc 3faa adbd
00000170: a7d3 d73d fd54 a4be bd5a 50be 790e fcbd
00000180: 3547 22be f4bb 5abe 2d56 fbbd 5040 e4bd
00000190: ca71 55be 935e cebd e53b 433d 9a87 83bd
000001a0: f647 80be 54e0 d13c fb19 273d 6223 70be
000001b0: f320 7ebd 96d8 8fbd 3b2b 15be 2e99 a2be
000001c0: 271d 3abe 74a3 24be 0696 81bd efb8 c2bd
000001d0: a50f 55be 8ec0 e53d 933b f3bc 8806 65be
000001e0: 12de 96bd c248 b3bc 624c 92be 96fc 08be
000001f0: a9a8 72be b50b d4bd 02a2 6dbe 912b d8bd
00000200: 7992 b53c 63f2 2bbe f075 dcbd 17e4 37be
00000210: 2114 193e b587 17bd 9fbb 6bbe 6505 abbd
00000220: 35b7 40be f67c bbbc 571d 90bc d8f3 acbe
00000230: 6a55 c0bd bd8b 1abd 9e04 13bd 036c 36bd
00000240: 9b75 2dbd d8b2 29bd 6a18 21be 3dfe a3bd
00000250: a158 2f3d 912d 47bd 5e06 a2be 837c 45be
00000260: 6027 28be a31a 8f3d 892d 843c 5bd7 00be
00000270: 6e40 16bc 89f3 93be b043 acbe 239c 83be
00000280: 3211 b8be f62d 413d 21e2 973a 77d9 4abc
00000290: a17c 303d 2c81 173e 9db2 2ebd d51b a63d
000002a0: 1ebd 3fbe 144f 023d e305 2bbe ba13 64be
000002b0: eab3 95be fcee babe 773d 8abe b6bb 05be
000002c0: 5307 8dbc 8c2d 4cbe b8f4 60be c55d 953d
000002d0: 8ba7 77be ff9b 16bd 8943 5cbd 598b 9bbe
000002e0: 9f24 9bbe 2cb8 02be 2703 e93d c57d b4be
000002f0: 4a2c 78bc b670 a9bc d5d5 93be c0ed 1cbe
00000300: 583f d9bd 7cc7 f2be 05d0 1cbe 8964 a7bd
00000310: 8273 64be b04c cbbd 480b 4bbc 45b4 20bd
00000320: fdd2 43be 6221 023e 02d1 64bd d9c0 833d
00000330: 8a17 a1be f235 20be c4a2 a63d a570 30be
00000340: ee05 00be fb6d 9abe 132c 83bd 9815 dabe
00000350: 4eca 89bd 752c 9ebe 45d3 3abe a5b4 8bbe
00000360: 6693 3cbe 8c2d ce3d 8ddc 1dbe eb05 6a3d
00000370: ab8f 57be 3731 07be b741 2b3d c7fd 8dbd
00000380: c6ae b7bd b28c ab3d c10f e9bd 3ca6 9fbe
00000390: 8da7 12be 3b91 82be 4426 9f3d 2564 1a3e
000003a0: 0c7f 06be c2d8 3dbd e06a 4bbe a931 6cbe
000003b0: a257 c8bd b0ad 67be 381e 71be 55c8 0b3d
000003c0: 882a 9dbd 1760 bc3c 5d17 09be eeaa 30be
000003d0: e717 063d 164e b8bd eb0e 34bd ebaa 06be
000003e0: 991e 0dbe ee64 69bd 8744 b6bd be65 f8bd
000003f0: 0c78 f33c 65b5 dabd 7f93 8b3d 669d f03d

bias f4 [128]
-0.13393502 -0.1770729 0.024172723 0.6498895 0.1443963 0.7586417 0.2977176 0.13305922
0.060814876 0.060315568 0.010434202 0.16603762 -0.018463206 0.3703885 -0.085373655 -0.23575695
0.42937416 0.11537331 -0.08245071 -0.008231999 0.6096526 0.08110865 0.040148683 0.45522237
0.32719997 0.17208947 0.39945805 0.20650566 0.36059472 0.411994 0.5622941 0.69087934
0.021578914 0.05596334 -0.02113771 -0.15903144 0.6916108 0.11534855 -0.119967245 0.032955166
0.5990382 0.44795653 0.19120386 -0.20942678 0.35446113 0.046122838 0.58776677 -0.07620483
-0.081868984 0.6691169 -0.03200701 0.7319795 0.6120131 0.21586482 0.039141554 -0.11103294
-0.078294784 0.1589219 0.023819182 0.62453806 -0.044737194 -0.01173194 -0.022488741 -0.085155375
-0.037019227 -0.086727425 -0.003433537 0.050297946 0.101048835 0.016748972 0.17850973 0.011859657
0.26953492 -0.042682305 0.15151753 -0.034939446 0.22595446 0.28296274 -0.022258919 0.15272306
-0.047441665 -0.039998632 0.48087654 -0.13211901 0.06871915 -0.084608115 0.0042365403 0.037125103
0.06824922 -0.18123084 0.4061916 -0.18432607 0.07675154 0.7204012 -0.20944123 -0.004911889
-0.12870243 -0.16751295 -0.09900596 0.020269211 -0.002259863 -0.048958406 -0.10802184 -0.071719654
0.055435415 0.029570641 -0.09680185 0.51162446 -0.021071542 0.49891153 0.08531374 -0.07743654
-0.060452446 0.05652322 0.14385118 -0.073213466 0.27623054 0.4635491 -0.095835865 0.0093704425
-0.077838555 0.6445939 0.2582242 -0.021369707 -0.06346839 -0.014271776 -0.062414832 0.22665161
00000000: 4326 09be 9952 35be e005 c63c 295f 263f
00000010: a0dc 133e 5836 423f 716e 983e ad40 083e
00000020: 0519 793d 750d 773d 37f4 2a3c c405 2a3e
00000030: 2640 97bc 90a3 bd3e 62d8 aebd 456a 71be
00000040: eed6 db3e d848 ec3d ebdb a8bd 82df 06bc
00000050: 3112 1c3f 4b1c a63d f272 243d e812 e93e
00000060: c186 a73e 3938 303e c485 cc3e 3876 533e
00000070: df9f b83e e1f0 d23e 82f2 0f3f 78dd 303f
00000080: 43c6 b03c d139 653d fe28 adbc 23d9 22be
00000090: 680d 313f dc3b ec3d 63b1 f5bd fffb 063d
000000a0: 915a 193f 8f5a e53e f2ca 433e f973 56be
000000b0: ee7b b53e 4deb 3c3d e277 163f 4711 9cbd
000000c0: edaa a7bd 3f4b 2b3f c819 03bd 0263 3b3f
000000d0: e4ac 1c3f ab0b 5d3e e552 203d 3d65 e3bd
000000e0: 0459 a0bd 6cbc 223e 7220 c33c bae1 1f3f
000000f0: 593e 37bd 5337 40bc 4f3a b8bc f165 aebd
00000100: 79a1 17bd 269e b1bd 3105 61bb 3805 4e3d
00000110: b1f2 ce3d 2435 893c 41cb 363e 024f 423c
00000120: 7b00 8a3e a4d3 2ebd 6927 1b3e aa1c 0fbd
00000130: 9b60 673e 7ee0 903e 5658 b6bc 6f63 1c3e
00000140: 3152 42bd 9bd5 23bd 7335 f63e 354a 07be
00000150: a0bc 8c3d 0547 adbd add2 8a3b 7e10 183d
00000160: 3fc6 8b3d 9494 39be 58f8 cf3e f9bf 3cbe
00000170: e92f 9d3d 376c 383f c377 56be e9f3 a0bb
00000180: 92ca 03be 8488 2bbe a3c3 cabd 9e0b a63c
00000190: 361a 14bb 9c88 48bd 8e3a ddbd c1e1 92bd
000001a0: 3f10 633d 213e f23c 0c40 c6bd d2f9 023f
000001b0: 3a9e acbc 5571 ff3e f8b8 ae3d 0c97 9ebd
000001c0: fc9c 77bd e484 673d b94d 133e f1f0 95bd
000001d0: 176e 8d3e 4f56 ed3e 9845 c4bd 7c86 193c
000001e0: d269 9fbd 1b04 253f f635 843e 860f afbc
000001f0: b7fb 81bd 2bd4 69bc b2a6 7fbd 5c17 683e

weight f4 [24, 128]
0.19513772 0.0028225111 0.2158227 0.058758292 0.17170753 0.12941119 -0.6612074 -0.031244896
0.055834964 -0.005891885 -0.095578045 -0.19272672 -0.1193799 0.28828573 0.10664745 0.11964518
0.09400059 0.103017725 0.050697364 0.15124086 0.08704706 0.13937026 0.51245624 0.10337501
-0.14877655 0.111184135 0.039167676 -0.0076333126 -0.09921225 0.09589037 0.013437859 0.081131086
0.27797443 0.18972048 0.0901629 0.039256234 0.063543245 0.32926708 -0.11147041 0.18445279
-0.00016724487 0.034710225 0.17172413 0.047495976 0.2903654 -0.3785012 0.06395912 -0.08227252
-0.04413814 -0.608065 0.29997241 0.09441529 0.081659354 -0.057872422 0.17000876 0.08257161
-0.04929961 0.03734405 0.0017371891 0.0906153 0.009286917 0.11745844 0.007375572 0.1114275
-0.14880468 0.048453204 -0.009412318 0.34875473 0.14277211 0.09481577 0.111276634 0.13688059
0.3704726 0.017025942 0.22817214 0.042704415 0.35060158 0.42806792 0.37561375 -0.6854555
0.06510889 0.13583416 0.040560048 0.08773733 0.10463038 0.026220609 -0.022458423 0.020592844
-0.022457233 0.0042689904 0.25854963 0.15726422 0.37233382 0.106345735 0.083929785 0.078567676
-0.03469096 0.12640686 -0.19013289 -0.024987552 0.17393665 0.00569623 0.09678306 -0.10908986
-0.1100131 0.17270811 0.053927347 -0.031488463 -0.14641431 0.10864872 0.13911916 0.2295351
0.0065064123 0.3487193 0.08616229 -0.08425662 0.3033777 -0.45093572 0.06016562 0.16087827
0.023480501 0.07945761 -0.44155094 0.39009216 0.1927144 0.061677158 0.18607983 -0.06539377
-0.14789028 0.10915789 0.04539667 -0.68970925 0.07856906 0.08743132 0.07007735 0.4002059
0.07670091 0.1665763 0.11262328 0.2122428 0.3224955 0.14360742 0.008115138 -0.10625252
0.09608508 0.00049439515 0.053151455 -0.07226249 -0.15750557 0.23557442 0.37391812 -0.37281895
-0.4189792 0.046799388 -0.11869075 -0.55694985 0.10290651 0.12115011 0.059397828 0.053334117
0.001091688 -0.0018136555 0.2346567 0.1901451 0.095214546 -0.015089876 -0.03601273 0.010914876
0.10234102 -0.6108238 0.07357439 0.29200208 0.15334544 0.073412396 0.028548263 -0.042102136
0.008649339 0.14090315 0.325949 0.08639359 0.08650364 0.3433863 0.03826795 0.12520975
-0.0014088531 0.2661399 0.11768385 0.13233583 -0.033717982 0.0067849876 0.014309033 0.23926125
0.09946636 0.057777345 -0.05626786 0.21914703 0.1558813 0.105827115 0.20548402 0.020390887
0.15765189 0.19494937 0.17071615 -0.2932728 0.37561366 0.31754416 0.1348992 0.07615626
0.098931074 0.18803015 0.060799357 -0.32309017 -0.17824435 0.15766016 -0.17763978 0.093845434
0.037184354 -0.003447718 -0.011709589 -0.14803798 0.13602062 0.12964408 0.25493032 0.38654324
0.27646682 0.021157855 -0.19756152 0.12446995 0.10259524 -0.008901629 -0.1263057 -0.08373532
0.0047663767 0.13135113 0.03982257 0.05014569 -0.17536998 0.07066557 -0.37626225 0.007633788
-0.0029056575 -0.036543928 -0.37423486 -0.14167719 0.1609989 0.021386903 -0.08168432 0.11294367
-0.03467226 0.09627766 -0.49805725 0.13381408 0.020179305 -0.15698604 0.08191157 0.2503647
00000000: 2fd2 473e e1f9 383b a000 5d3e 89ac 703d
00000010: 19d4 2f3e 5e84 043e e344 29bf 4cf5 ffbc
00000020: 34b3 643d b710 c1bb 6cbe c3bd 275a 45be
00000030: 737d f4bd 309a 933e fa69 da3d 8808 f53d
00000040: 6283 c03d f5fa d23d 0aa8 4f3d e2de 1a3e
00000050: bb45 b23d 14b7 0e3e 5530 033f 47b6 d33d
00000060: e158 18be 82b4 e33d 496e 203d de20 fabb
00000070: cb2f cbbd 2c62 c43d 772a 5c3c 0e28 a63d
00000080: aa52 8e3e 1646 423e 54a7 b83d 25cb 203d
00000090: f622 823d b295 a83e 994a e4bd 31e1 3c3e
000000a0: 745e 2fb9 4f2c 0e3d 73d8 2f3e 248b 423d
000000b0: c6aa 943e e9ca c1be 00fd 823d 7f7e a8bd
000000c0: 32ca 34bd 26aa 1bbf fc95 993e ce5c c13d
000000d0: 053d a73d a20b 6dbd c716 2e3e 4e1b a93d
000000e0: 63ee 49bd 13f6 183d 65b2 e33a 8494 b93d
000000f0: 2728 183c 0d8e f03d c8ae f13b 1a34 e43d
00000100: 4160 18be de76 463d 1f36 1abc fb8f b23e
00000110: da32 123e c52e c23d 01e5 e33d 6d2a 0c3e
00000120: 96ae bd3e fd79 8b3c f5a5 693e d3ea 2e3d
00000130: 0d82 b33e b82b db3e 7250 c03e 037a 2fbf
00000140: cf57 853d 1c18 0b3e 4b22 263d a1af b33d
00000150: 7448 d63d 9acc d63c bafa b7bc 53b2 a83c
00000160: 3bf8 b7bc e3e2 8b3b 9e60 843e df09 213e
00000170: 8aa2 be3e cbcb d93d 61e3 ab3d 17e8 a03d
00000180: 1c18 0ebd cd70 013e 32b2 42be b2b2 ccbc
00000190: 731c 323e 71a7 ba3b 3236 c63d 816a dfbd
000001a0: 8c4e e1bd 65da 303e ece2 5c3d 0cfa 00bd
000001b0: a2ed 15be 3883 de3d 4175 0e3e 400b 6b3e
000001c0: be33 d53b 568b b23e db75 b03d bc8e acbd
000001d0: 5254 9b3e 0ce1 e6be 3a70 763d 46bd 243e
000001e0: 2e5a c03c acba a23d f712 e2be 29ba c73e
000001f0: ec56 453e 30a1 7c3d b68b 3e3e 2bed 85bd
00000200: 8d70 17be 2c8e df3d dcf1 393d c990 30bf
00000210: d1e8 a03d 310f b33d b784 8f3d cae7 cc3e
00000220: 5e15 9d3d fa92 2a3e 09a7 e63d 2d56 593e
00000230: 211e a53e d30d 133e 5bf5 043c ec9a d9bd
00000240: 41c8 c43d 4c9a 013a 57b5 593d 5bfe 93bd
00000250: 2449 21be 6c3a 713e 3272 bf3e 20e2 bebe
00000260: 7184 d6be b7b0 3f3d 2314 f3bd 4494 0ebf
00000270: a6c0 d23d 8d1d f83d 234b 733d e074 5a3d
00000280: f916 8f3a 2eb8 edba d949 703e 66b5 423e
00000290: d8ff c23d 873b 77bc 1682 13bd 4fd4 323c
000002a0: 2b98 d13d f35e 1cbf 2bae 963d 4c81 953e
000002b0: 9606 1d3e 3d59 963d 0cde e93c 4a73 2cbd
000002c0: f5b5 0d3c ea48 103e cae2 a63e 1fef b03d
000002d0: d228 b13d 54d0 af3e dbbe 1c3d fc36 003e
000002e0: 44a9 b8ba 7d43 883e 3b04 f13d 0b83 073e
000002f0: de1b 0abd 9a54 de3b 6f70 6a3c e700 753e
00000300: 05b5 cb3d f0a7 6c3d 2179 66bd 1468 603e
00000310: 599f 1f3e e3bb d83d 676a 523e ca0a a73c
00000320: 7f6f 213e cfa0 473e 37d0 2e3e da27 96be
00000330: 6f50 c03e 2695 a23e 0423 0a3e d0f7 9b3d
00000340: 609c ca3d fa8a 403e bf08 793d 136c a5be
00000350: b085 36be aa71 213e 34e7 35be 0932 c03d
00000360: 9f4e 183d 1cf3 61bb 93d9 3fbc 4597 17be
00000370: fd48 0b3e 6bc1 043e 3a86 823e ffe8 c53e
00000380: 0f8d 8d3e 3d53 ad3c 914d 4abe 1aea fe3d
00000390: 741d d23d 23d8 11bc 4856 01be 6c7d abbd
000003a0: 442f 9c3b e980 063e fe1c 233d 9165 4d3d
000003b0: 3094 33be 1cb9 903d 72a5 c0be db24 fa3b
000003c0: d86c 3ebb 16af 15bd b69b bfbe d313 11be
000003d0: e5dc 243e 9633 af3c 1c4a a7bd 034f e73d
000003e0: 8004 0ebd 392d c53d 5c01 ffbe 8f06 093e
000003f0: 124f a53c f3c0 20be 41c1 a73d cd2f 803e

bias f4 [24]
-0.009964658 -0.028899621 0.008810315 -0.042085063 -0.010810552 -0.018135216 -0.01638254 -0.00811334
-0.07188706 0.021853618 -0.009374307 0.004426975 0.01182825 0.05498938 -0.0034773573 0.0055860234
0.0178355 0.055831492 0.0036368473 -0.017893257 0.004235284 0.054032736 0.012544155 -0.015707199
00000000: ce42 23bc e6be ecbc 2459 103c 6361 2cbd
00000010: be1e 31bc 4e90 94bc ad34 86bc d0ed 04bc
00000020: 8639 93bd 5c06 b33c b196 19bc 2810 913b
00000030: 47cb 413c 8b3c 613d 60e4 63bb f60a b73b
00000040: c11b 923c 90af 643d 2c58 6e3b e194 92bc
00000050: 23c8 8a3b 6e51 5d3d 0086 4d3c 62ac 80bc

weight f4 [128, 512]
0.23293765 -0.101704806 0.11038488 0.082148306 -0.28011438 0.02113039 0.15317027 -0.26395833
0.0069586188 0.04555856 -0.2025138 -0.23690648 -0.44655514 -0.41090092 0.12159284 -0.0682131
0.09843421 0.187908 0.38979572 0.07803162 -0.45421606 0.16483113 0.5427978 -0.8389117
-0.19832411 -0.19967212 0.16587618 -0.35899305 -0.19105971 -0.27237484 -0.13110738 0.04118786
0.14242677 0.06820277 0.17629895 0.15093651 -0.17511638 -0.087565124 0.2773277 0.18536684
-0.061470553 0.034512866 0.042343825 0.15703404 0.16582836 0.115976915 0.01687685 -0.23914091
0.29644692 0.21876249 0.2744567 0.027639154 -0.07211349 0.094669625 -0.21388891 0.28217292
0.11315757 0.020104194 0.072148964 -0.14080822 -0.0016959305 -0.21955843 0.06893914 -0.101604514
0.13659321 0.39564604 0.35471487 0.123992294 0.05721043 0.3085869 0.22646949 0.1828129
-0.14185299 -0.3257116 0.30681506 0.06044781 0.19952284 0.380598 -0.23527633 0.19540542
0.11561004 0.13671444 -0.041254897 0.054547094 0.12042419 0.483531 -0.018863874 0.23105364
0.10305164 0.0069553144 -0.68119025 0.30054608 0.07061674 0.0731497 0.19379815 -0.061149124
-0.033330306 0.0050287754 0.26799643 -0.04090986 -0.09016434 0.13310955 0.039081704 -0.2111104
-0.13290226 0.18342444 0.24017835 0.08452551 0.09315922 -0.1302822 0.0033734154 0.08265656
-0.15201885 -0.06768143 0.3240031 0.14923453 0.041289747 0.30222794 -0.4436207 0.45935372
-0.010842756 0.34331316 -0.104279846 -0.11892074 -0.20067346 0.0014421592 -0.34942845 0.064048104
0.14199546 0.14247029 0.22893909 -0.1530826 -0.11722024 -0.07716734 0.034793146 -0.35916844
0.1339457 0.025396612 -0.052588604 -0.21957694 -0.24588113 -0.34446445 -0.010191617 -0.25330803
-0.08623308 0.23246013 0.10525248 0.19742556 -0.2813323 -0.22584923 0.15030204 0.25515032
0.15385145 0.007559941 0.039649602 -0.19828883 -0.06606233 -0.07379593 -0.18341209 0.023869218
0.08195512 -0.20189473 -0.061532643 -0.11197114 0.1014351 0.18093093 0.105024196 -0.1706115
-0.33310947 -0.053859334 0.19625981 -0.053803146 0.17315532 0.29502508 -0.20958163 0.1929595
-0.26600152 0.084826946 0.071300104 -0.09231914 -0.15478292 0.032360367 0.042974584 -0.06618887
-0.14653942 0.05328706 0.1541031 -0.21208279 -0.005442845 -0.052474566 -0.021223925 -0.22927733
0.022345439 -0.17978469 0.33890578 0.0013103753 0.23510122 0.21549866 -0.120681755 0.044823848
-0.08530616 -0.21097638 0.009373146 0.016102389 0.3153317 0.37705457 0.043293077 0.010045208
0.15690513 -0.20673072 0.23984545 -0.24997413 0.2174324 0.085702844 0.29340768 0.118964925
0.030446365 -0.11868006 0.14995609 0.26792547 0.19346358 0.050642088 0.1359044 0.2648059
0.0012370241 0.0415085 -0.012465359 -0.05467583 0.191118 -0.09089911 -0.02964346 0.20858115
0.19467433 -0.33333316 0.022554858 -0.20669079 -0.03839367 -0.14585161 0.04334585 0.22102559
0.15371916 0.3530784 0.28986076 0.029875057 -0.3030336 -0.2236027 0.38393393 -0.052877244
0.40827167 0.28033006 -0.40850362 0.23443939 -0.36122656 -0.25073928 -0.014628475 0.106936716
00000000: 3587 6e3e 9c4a d0bd 7811 e23d 5f3d a83d
00000010: 276b 8fbe a419 ad3c abd8 1c3e 8c25 87be
00000020: 2005 e43b 9d9b 3a3d c75f 4fbe 9d97 72be
00000030: e0a2 e4be 9b61 d2be ab05 f93d 4fb3 8bbd
00000040: e097 c93d f46a 403e 4e93 c73e 0bcf 9f3d
00000050: 028f e8be 7ec9 283e ccf4 0a3f ebc2 56bf
00000060: 7a15 4bbe d976 4cbe 72db 293e f0cd b7be
00000070: 28a5 43be b774 8bbe 0341 06be 9ab4 283d
00000080: 53d8 113e e5ad 8b3d b687 343e 1a8f 1a3e
00000090: b551 33be 5855 b3bd e5fd 8d3e ced0 3d3e
000000a0: 8cc8 7bbd 5d5d 0d3d b870 2d3d 88cd 203e
000000b0: e9ce 293e 4e85 ed3d 5241 8a3c 5be1 74be
000000c0: e4c7 973e 4603 603e 9785 8c3e 826b e23c
000000d0: 3db0 93bd 26e2 c13d b205 5bbe f878 903e
000000e0: 28bf e73d 8db1 a43c d6c2 933d 0830 10be
000000f0: fc49 deba edd3 60be f72f 8d3d 0716 d0bd
00000100: 17df 0b3e 1e92 ca3e 309d b53e acef fd3d
00000110: 7c55 6a3d 1aff 9d3e 9ee7 673e 4e33 3b3e
00000120: e941 11be acc3 a6be dd16 9d3e 1f98 773d
00000130: b74f 4c3e bedd c23e 47ec 70be 5c18 483e
00000140: f5c4 ec3d dffe 0b3e e5fa 28bd c66c 5f3d
00000150: f5a0 f63d 6091 f73e 6988 9abc 5399 6c3e
00000160: bd0c d33d 68e9 e33b 7c62 2ebf 2de1 993e
00000170: 829f 903d 83cf 953d 0673 463e 8177 7abd
00000180: 5c85 08bd 6dc8 a43b d436 893e 1991 27bd
00000190: 15a8 b8bd df4d 083e 2314 203d 532d 58be
000001a0: 8817 08be 9ed3 3b3e 50f1 753e b61b ad3d
000001b0: 43ca be3d b268 05be 8514 5d3b d847 a93d
000001c0: d4aa 1bbe 909c 8abd bce3 a53e f0d0 183e
000001d0: 701f 293d 9fbd 9a3e 4122 e3be 6930 eb3e
000001e0: d1a5 31bc bec6 af3e ac90 d5bd b88c f3bd
000001f0: 587d 4dbe d506 bd3a 49e8 b2be a72b 833d
00000200: 4267 113e bbe3 113e 026f 6a3e afc1 1cbe
00000210: 2a11 f0bd e909 9ebd 4283 0e3d ede4 b7be
00000220: 1029 093e 8e0c d03c 2667 57bd c7d8 60be
00000230: 43c8 7bbe a55d b0be bdfa 26bc 97b1 81be
00000240: f89a b0bd 070a 6e3e 9d8e d73d ed29 4a3e
00000250: ca0a 90be 0545 67be c7e8 193e 10a3 823e
00000260: 3c8b 1d3e 62b9 f73b 9f67 223d 3a0c 4bbe
00000270: b04b 87bd 5222 97bd 61d0 3bbe 6189 c33c
00000280: 16d8 a73d 7ebd 4ebe a709 7cbd 2051 e5bd
00000290: 35bd cf3d f545 393e ed16 d73d c8b4 2ebe
000002a0: 538d aabe 9b9b 5cbd 55f8 483e b060 5cbd
000002b0: a14f 313e 870d 973e 919c 56be 2d97 453e
000002c0: 5a31 88be c0b9 ad3d ca05 923d d111 bdbd
000002d0: 6a7f 1ebe 4e8c 043d 1e06 303d 088e 87bd
000002e0: 6e0e 16be 8843 5a3d 34cd 1d3e 3b2c 59be
000002f0: e559 b2bb 92ef 56bd ccdd adbc adc7 6abe
00000300: c80d b73c 7a19 38be 0f85 ad3e e6c0 ab3a
00000310: 60be 703e aeab 5c3e ff27 f7bd 3699 373d
00000320: ffb4 aebd 310a 58be d391 193c 28e9 833c
00000330: 2873 a13e 4c0d c13e 1554 313d a894 243c
00000340: bdab 203e 38b1 53be 0c9a 753e 38f9 7fbe
00000350: 99a6 5e3e f984 af3d 8839 963e e2a3 f33d
00000360: a86a f93c 880e f3bd 178e 193e 872d 893e
00000370: 511b 463e 146e 4f3d 862a 0b3e a494 873e
00000380: a423 a23a d104 2a3d 813b 4cbc c3f3 5fbd
00000390: 70b4 433e 5029 babd d7d6 f2bc 4c96 553e
000003a0: b558 473e a5aa aabe f7c4 b83c c0a6 53be
000003b0: ae42 1dbd 205a 15be 6b8b 313d 8854 623e
000003c0: 8e68 1d3e b1c6 b43e a168 943e 89bc f43c
000003d0: 3827 9bbe 1bf8 64be fd92 c43e cf95 58bd
000003e0: fc08 d13e 6c87 8f3e 6327 d1be e110 703e
000003f0: b0f2 b8be e660 80be 45ac 6fbc a301 db3d
