player-model/dqn_3_greedy_59_greedy.pt (torch, 95112 bytes, 6 tensors)

weight f4 [128, 24]
00000000: 919c 853e d7f8 083e 2cd8 1a3e 776d e5be
00000010: 82cc 84bc 137c 7f3d 6326 973e fc26 cc3d
00000020: 1fde b63d c8d7 b53d f90b e3bc 0444 483d
00000030: 47a4 78bf a1f5 e9be 7f7f 723d 2026 ae3d
00000040: c1b1 b63d b56e 27be 04a9 ae3d a5a7 ec3c
00000050: f682 113e 54cd 5b3d 5bdd e93d 606d 923d
00000060: 5117 073e b4a2 8d3e d9f2 c8bd 70c3 02bf
00000070: 85d1 963e bf6e 67be bfd8 b9be 887d 8fbb
00000080: d0ba 9bbc ff10 9a3e 0ade 39be 37ba 023e
00000090: c3b2 193e f855 803e 9e17 9b3d 3eaa 06bd
000000a0: e4a3 ccbe 1a6f e0be 232f 073d 34f8 18bd
000000b0: 39dc 863e 41cc c73d b595 513d 2bc0 2f3d
000000c0: 82ce 843e fc04 fc3d 0bd5 de3d fdb9 c6bc
000000d0: c79a 293e 54d6 7abd 2646 8ebe 7712 8cbb
000000e0: d498 7bbd 903d 26bf ccb9 ca3d 1529 363e
000000f0: 03da b73e 72bb 883e 1501 53bc 9f1c 963c
00000100: 7293 363e b211 d43c 861b 6f3c 740e 03bb
00000110: 3fc8 d5be 0eeb 98be db02 053d 9eb3 00bd
00000120: b96c c73b dc80 143f 3f02 0bbd 39af 01be
00000130: fe16 9d3e 6886 4abe 36aa 59be dbb1 a4bd
00000140: fb2a 59be 83e1 99be 8cf9 a4be d9ba 32be
00000150: 7c4c 4fbd 5e3d 1a3f 0ebe f93e 299f 7bbd
00000160: 0921 70be 76be 14be c485 49be a28a 3fbe
00000170: f115 a7be 829f 03be 16a2 4cbe 03f1 64be
00000180: b3bf 4e3e 5268 ddbc f6fd 8dbe 60dd 2bbd
00000190: c2c0 d2be f4ec c9be 8b2e b2bd 5a6c 24bc
000001a0: 09fc 623e 2ffe 8bbe 5207 3cbb 0693 923d
000001b0: 3675 363e 47e0 2bbe 7d87 46bf 9e4a 7fbe
000001c0: d96e 0e3e b145 b83d 12ca 2e3d 4075 b03e
000001d0: 072c 74be c82d 3cbe 890b 363e 6714 c33d
000001e0: 9999 5f3e bac3 80bd 5790 463d 5165 4abd
000001f0: 671a e03d f1b9 ddbc be5e c63c 167b 013d
00000200: 91c5 583e 8589 c23d 8f6f c13d ab78 0d3e
00000210: b060 3a3d 39ce a13d 8289 a7bd 43a6 143d
00000220: 6efa aebf 6a32 b73d 29a5 9ebd c832 653d
00000230: c84b 623d e8ea 4b3c 4801 e93d 5392 4fbb
00000240: a4a7 c33d cb84 8ebd 7cf7 a5bd 404b bf3e
00000250: 55fc d7be 90bc 13bf 2059 063d 7571 fdbd
00000260: c6aa 323e fde3 36bc e701 52be df9b 1bbc
00000270: 5c25 ad3d 4a7c 9a3e 9aa7 d8be 42f6 f33b
00000280: 6466 5d3c a94c c0bd 3ad3 9bbe 591d 92bd
00000290: 4a9d 843d ab15 83be dfe5 d03d 6309 b83d
000002a0: d0b9 aa3d 33fd 16bb b4a8 563c 9eb7 1b3e
000002b0: 25e9 053d 68a2 013e 5adb 89be 6c0f 4ebf
000002c0: 8c35 85bf d8ba 5e3e 7ff7 8d3e 8244 b43d
000002d0: 5da9 a53d 71c8 c23d d1c2 0fbe d785 ab3d
000002e0: 5c1f 463e 766e 66bd 3e43 58bf 6cce 913e
000002f0: a5e6 053c 912a f53d 7a77 94bf f769 9b3d
00000300: 59f8 97bc 5e6b d43d 0208 963d db1e 0fbe
00000310: 1951 0bbd 2b64 a7bd 4f86 2cbc cf15 a4be
00000320: f2f9 2abe 3d20 393e b044 5cbe 9e1b 713e
00000330: bb0a 403d 22fa 12be 85d4 8cbe fe81 963c
00000340: fc43 8b3d e61d c33b 76b6 c93d 5d78 803c
00000350: 686d 203e 24a2 85be 3277 90be 1bee 0f3e
00000360: b6cd 333e 5047 f5be 9749 813e 6bcb 3a3e
00000370: 4141 42bf 343f 373e e9c4 033e 9d61 903c
00000380: 7ab3 653d 8d65 8b3e e694 633e cc8e 993e
00000390: 415a 183e 4fe7 70bf 5a86 5ebf 8a85 153e
000003a0: cd1e 123e fb7e d23d ba79 243e df78 2a3e
000003b0: 8433 0a3e 67fd f43d ee0e 323e 3127 5e3e
000003c0: a60a 253e 8bfc 133d 741d 643e bf17 10bd
000003d0: 4aee 2d3b 4601 a8be aa53 6e3d 4d06 82bc
000003e0: d799 18be c2ff 453e ba13 9abe ebbb 353e
000003f0: f7af 933e 0270 43be b4a9 803e 72b4 863e
0.26096013 0.13376175 0.15121526 -0.44810078 -0.016210798 0.062374186 0.29521474 0.09968373
0.08929085 0.08879048 -0.02771567 0.04889299 -0.9712567 -0.45695212 0.05920362 0.085033655
0.089206226 -0.16350825 0.08528331 0.028888533 0.14210114 0.053662613 0.11419173 0.07149768
0.13192488 0.27663195 -0.098119445 -0.51079464 0.29456726 -0.2260084 -0.36298177 -0.004378978
-0.019009978 0.30091092 -0.18151107 0.12766348 0.15009598 0.2506559 0.07572864 -0.0328772
-0.3996879 -0.43834764 0.033003937 -0.03734608 0.26339892 0.09755755 0.051168162 0.042907875
0.25938803 0.12305638 0.108804785 -0.024258608 0.16562949 -0.061239555 -0.27787894 -0.004274662
-0.061425045 -0.64937687 0.09898719 0.17789109 0.35908517 0.2670551 -0.012878676 0.018324194
0.17829683 0.025887344 0.014593964 -0.0019997628 -0.41754338 -0.29866832 0.032473426 -0.031421296
0.006085959 0.58009124 -0.03393769 -0.12664498 0.30681604 -0.19777834 -0.21256337 -0.08041736
-0.21207802 -0.30054864 -0.3222164 -0.17454089 -0.05061005 0.6024989 0.48777813 -0.061431084
-0.23450102 -0.1452578 -0.19679934 -0.18705228 -0.32633927 -0.12853816 -0.19983706 -0.22357564
0.20190315 -0.027027283 -0.2773282 -0.041959167 -0.41162688 -0.39438593 -0.087002836 -0.010035599
0.22166456 -0.27342364 -0.0028690887 0.07156949 0.1781815 -0.16784774 -0.7755049 -0.24930808
0.13909473 0.089976676 0.042673178 0.34464455 -0.2384492 -0.18376839 0.17777838 0.09525376
0.21835937 -0.06287332 0.048477497 -0.04941303 0.10942536 -0.027066203 0.024215098 0.031611525
0.21169116 0.09498886 0.09445106 0.13815562 0.045502365 0.07900662 -0.081805244 0.036291372
-1.3670175 0.089451626 -0.077463455 0.055956632 0.055248052 0.012446143 0.113771975 -0.003167291
0.09553459 -0.06958922 -0.081038445 0.373621 -0.42184702 -0.577096 0.03279984 -0.12375156
0.17447957 -0.011162755 -0.20508538 -0.009497612 0.08454391 0.3017295 -0.4231537 0.0074451277
0.013513181 -0.09389622 -0.3043459 -0.07134504 0.06475313 -0.2560247 0.102000944 0.089861654
0.08336222 -0.0023039102 0.013101745 0.15206763 0.032693047 0.1265961 -0.26925164 -0.8049228
-1.0406966 0.21750963 0.27727887 0.08802129 0.08088944 0.095108874 -0.1403916 0.08375137
0.193479 -0.056257688 -0.84477603 0.284778 0.008172666 0.119710095 -1.1598961 0.075885706
-0.018551039 0.10372041 0.07325746 -0.13976614 -0.034012888 -0.081734024 -0.010530069 -0.3204789
-0.16696909 0.18078704 -0.21510577 0.23545691 0.046885233 -0.1435323 -0.2750589 0.018372532
0.06800076 0.005954492 0.09849255 0.015682394 0.15666735 -0.26100266 -0.2821594 0.14055674
0.17558941 -0.4790597 0.25251457 0.1824166 -0.7588082 0.17895204 0.12868084 0.01762467
0.056079365 0.27225915 0.22224769 0.29991758 0.14878179 -0.9410295 -0.86923754 0.14601722
0.14269562 0.10278126 0.1606206 0.16647671 0.13496214 0.11962395 0.17388508 0.21694638
0.16117343 0.036129516 0.2227686 -0.035178896 0.0026539736 -0.32813472 0.058185257 -0.015872145
-0.14902435 0.19335845 -0.30093175 0.17747466 0.28845188 -0.19085696 0.25129473 0.26309544

bias f4 [128]
00000000: 5a7e 52be 8287 2cbb 1d44 84be c7f0 fa3e
00000010: 7c8f ff3e 209e 3bbc 0cb0 fa3d 020d 7abe
00000020: 593e ecbe f02a 90be bf71 2abe 5fff aabe
00000030: a0db 8ebe eea7 38be b715 e5be 1af5 eebc
00000040: f1be 81be f904 db3e d48f bb3f d20f aebd
00000050: a8f9 4f3d d896 88be 92b0 3a3e ec3e a43f
00000060: 84ae 37be 85ee 4d3f 7761 84be 6374 983f
00000070: 3bf0 32be 5c4b 09be b6d0 61be afc2 373f
00000080: af26 29be ad90 443f eec0 08bd 5517 88be
00000090: 23cf 33be cd6f 783f e950 57bd 1c60 88be
000000a0: 08ee 90bc bd91 bdbd c33b 6ebe 880d 65be
000000b0: 3810 02be 5188 e0be 42e3 91be ae35 95be
000000c0: 3cc8 903d 848f babe 401e 9dbe f7d7 a43e
000000d0: fa6f 23bf ceba 4ebd 816f 65be 5553 7dbe
000000e0: 2ba2 adbd 9219 5ebd dbc3 23be c0a3 83bd
000000f0: 4bbe c8be b593 32bd ac85 b63e 6399 2dbe
00000100: b290 01be 95b2 0cbf a759 a33e e7b5 913f
00000110: 5daf 9c3e 0dd3 ff3e 4580 b1bd 7d31 71be
00000120: 8e5c 503f 16d6 44be 749b 88be fb30 bcbe
00000130: 25ac 533d 299b 8abd c999 f9bd c12e 13be
00000140: fde9 8cbe 0125 fbbe 4b32 283e 9876 6fbe
00000150: dd95 713d 7037 18bf d286 993c dab2 213c
00000160: 9368 6bbe c304 243f efa0 2cbd b9e2 48bc
00000170: b457 a9be 8831 6ebe 8325 ab3e f355 1cbe
00000180: db52 373d 81f4 583e de38 733e 640c 0d3c
00000190: 12a0 7fbe 9511 a7bd 25e3 bd3e f30d 15be
000001a0: 31f8 d3bd ca10 eabd dcaf 60be df54 8e3e
000001b0: 8d82 003e c714 d8bd 6d0e 93be 6be6 f6be
000001c0: ffd2 63be e3b1 fabd c8e6 7abd 84f9 8dbe
000001d0: 807c ddbd 91ec 813d df4e 68bd 19d3 95bd
000001e0: c7f8 6d3d 3e4a 153e 9411 70be d80f 3d3e
000001f0: 96fb a53f 6254 3dbe 8562 a03d c25b 3cbc
-0.20556012 -0.0026325886 -0.25833216 0.49011824 0.49914157 -0.011451274 0.122406095 -0.24419025
-0.46141317 -0.2815776 -0.16644953 -0.33397958 -0.27901936 -0.1803281 -0.4474313 -0.029169608
-0.2534099 0.4277723 1.4653268 -0.08499111 0.0507752 -0.26677585 0.18231419 1.2831702
-0.17937666 0.80442077 -0.2585561 1.1910518 -0.17474453 -0.13407654 -0.22052273 0.7178144
-0.16518663 0.7678326 -0.033387117 -0.265803 -0.17559485 0.97045594 -0.052567396 -0.26635826
-0.017691627 -0.09256313 -0.23264985 -0.22368443 -0.127015 -0.43854 -0.28493696 -0.29142517
0.07069442 -0.3643762 -0.3068714 0.32196018 -0.6384274 -0.05047112 -0.22405817 -0.2473882
-0.08478197 -0.054223605 -0.15992682 -0.06427717 -0.39207682 -0.043597896 0.3564886 -0.16953044
-0.12652853 -0.54959995 0.31904337 1.1383637 0.30602542 0.49965706 -0.086670436 -0.23554035
0.8139123 -0.19222292 -0.266811 -0.3675612 0.05167784 -0.06767876 -0.12187535 -0.14373304
-0.2752227 -0.4905167 0.16425435 -0.23385084 0.05898081 -0.5945959 0.018741045 0.009869302
-0.2298911 0.64069766 -0.042145666 -0.012261086 -0.33074725 -0.23261082 0.33427057 -0.15267162
0.04475675 0.21187021 0.23752162 0.008608911 -0.24963406 -0.081576504 0.3708736 -0.14556102
-0.10350073 -0.114289835 -0.21942085 0.27799127 0.12549801 -0.10550838 -0.28721943 -0.4822267
-0.22248457 -0.122409604 -0.061255246 -0.27729428 -0.10814762 0.063439496 -0.056715842 -0.07315654
0.05809858 0.14579102 -0.23444206 0.18463075 1.2967403 -0.1848922 0.07831291 -0.011496486

weight f4 [128, 128]
00000000: 7f10 d13d 3410 993e 97ae 2d3e 51de aabe
00000010: 25c1 48be d2b8 4d3e 34c4 a13d c42e 15be
00000020: 073c 003e 27ac 833c 758e 5c3e 9955 2abe
00000030: 030b 143d 40a5 1cbd b99e 083e d2b2 4e3e
00000040: 75ad 643d 041f 983e 262f 5ebf 4429 c33d
00000050: c8d4 ecbd 551e 943e b8c6 8c3b deee 97be
00000060: 3327 8e3d 30a7 9fbe 7b5d 5bbe c0b1 89bf
00000070: 8abb 22be 4c12 cb3d 1a25 523d 9f52 9cbe
00000080: 2b04 853e 7713 db3d 1a73 9f3d 506c 653e
00000090: 5ffa 2a3d 1581 8fbe 9bc6 71bc 810d 323e
000000a0: a89b c33e 265f a8bd 33f3 613e 22ff 7bbd
000000b0: 4db0 4a3e 1241 7ebd 8723 fd3e 96c6 ccbd
000000c0: 04bb cdbc 531f 233d 6c70 113d 8436 d6be
000000d0: 9bfd 0fbb 49e1 b4bd 91d8 e33d c844 8a3d
000000e0: 7fe9 4abd 1647 453d af2e cc3e d9a8 153e
000000f0: 48cc 98be 8d89 a73a f86a 19bd 6599 46bc
00000100: 0c42 86bd 2693 1bbc b7f9 16be 6e75 47bf
00000110: f657 abbe 3256 e6be 133a 653e 1322 5c3d
00000120: 32ad 03be e060 e43d 50be 3fbe 4c47 57be
00000130: 82bc f6bc 46c9 653d f2b0 be3d 1946 9fbd
00000140: 1d00 91bd 2d7f 06be 563d 303d 0a99 153d
00000150: 866a e83e 3b71 adbc d853 ca3d beec 19be
00000160: 1a3a d1bd dd83 c2be ba42 ed3b 2a32 e23d
00000170: 8601 fd3c 5be6 443e 1cf4 00be 9948 de3e
00000180: cbd8 4fbe 42b0 5ebd 450c 023e 13ab 07bf
00000190: 3271 223e 156a c0be e5a1 c2bc 9493 43bc
000001a0: df42 5a3d 4b12 be3e c69b a63e 8b04 c7bc
000001b0: d3ec b73d bddb 73be a941 843d 8eee cabe
000001c0: b256 663e a742 1b3d 94b2 e7bd ef43 c33d
000001d0: 24b5 bdbd fe48 17be 9daa 543e 5851 dc3d
000001e0: 38bb 8ebc a178 953e 8c97 07bf dd1f ae3e
000001f0: 313c 8abf fc6f 193e 3869 003e 5834 b63e
00000200: 96fb 9fbd b640 e13d eb53 2c3d 5056 40bf
00000210: 7dd0 da3d c478 41be 54bd bdbe 936d 0bbf
00000220: 8b07 933e 2133 d73e a43e 0fbf ebfc 6dbe
00000230: dbac d83d 2402 b53b 7db0 613e 4c23 dabe
00000240: 0382 7f3e 78c4 1bbf 1c9d 5cbf fe0d 18bf
00000250: b9cc babd 01b9 4a3e 9d54 66be 4a01 3ebf
00000260: 131c a63e c060 86be 701d 8d3e 2b84 8bbf
00000270: 1260 bcbd f79a aabb 6edf 043f 9afc 6fbe
00000280: d2c7 c03d 0aa2 97be 65ac d33d 955a 793e
00000290: 0e1b 91bb 0f7b 13bf 91ec 7c3e 87e5 913e
000002a0: 2250 84be c8b3 ebbb cc91 403e 5065 aabd
000002b0: d406 4dbf c557 533e ad2d 9b3e a641 823e
000002c0: 8ef2 18bc 1358 653e 7998 19bf 1f71 b6bd
000002d0: 6a4c af3d 824e 863e bd44 893e 5c58 813b
000002e0: f865 bb3e 6f80 413e 2ab8 6e3e 0bd0 e33d
000002f0: 2d54 2b3d 41b0 aabe 67af 27bf 1dbc 6c3e
00000300: 90a9 a0be 098f 2b3e e880 b83b 759f 87bf
00000310: c28f 58be f53e 81bf b93f 43bf fb0a bc3d
00000320: 4763 c5be 0a60 8a3e c04c ce3d 87b0 8c3d
00000330: 047e a23e e854 753e be81 2dbe 6011 f8be
00000340: 12ac 323e a1cd 173d 5a89 c93d b011 8dbd
00000350: 2e1f 92bd 0262 193e 69d6 15bd 3150 a53a
00000360: 1ecf b0ba 14a9 67bf 2f8c 143f c5fb edbe
00000370: 6319 ba3e 0ac0 cabd 2fd5 2fbe eb5a 8f3e
00000380: 1772 acbd 9fd9 23be 6254 603c 0846 18bd
00000390: 08b4 7c3e fc7c 62be c400 9cbe c7f2 4a3e
000003a0: fdd0 193e 22cf 8e3e 698b 213e 8025 a13c
000003b0: 2deb 5cbf dd96 613e bfe8 743c 34ac 893d
000003c0: 9ec5 363e 235c 7a3e a145 903e 2efc 51bd
000003d0: 084f cb3e 8165 923e f8f9 9dbd 6cee 40bd
000003e0: 2cfc 0ebd 8d27 74be b974 113e 70b2 06be
000003f0: 7460 f1bf 760b b83e e236 39be b85d 8fbe
0.102082245 0.29895175 0.16961132 -0.3337274 -0.19604929 0.20090035 0.07898751 -0.14568621
0.12522899 0.0160733 0.21538718 -0.16634215 0.036143314 -0.038243532 0.13341798 0.20185402
0.055829484 0.29711163 -0.8679069 0.09529355 -0.11564022 0.28929392 0.00429615 -0.2967443
0.069410704 -0.3118224 -0.21422379 -1.075737 -0.15891853 0.09915599 0.051304914 -0.30531785
0.25979742 0.10697072 0.07785626 0.22404599 0.04174268 -0.2802817 -0.014756824 0.17387964
0.38204694 -0.08221273 0.2206543 -0.06152261 0.19793816 -0.062073775 0.49441168 -0.09998815
-0.02511359 0.039824795 0.035507604 -0.41838467 -0.002197123 -0.08832032 0.11125291 0.067514
-0.049539085 0.048163496 0.39879367 0.14615192 -0.29843354 0.0012782082 -0.03745553 -0.012121533
-0.06555566 -0.009495532 -0.14743696 -0.7791356 -0.33465546 -0.44987637 0.22385435 0.053743433
-0.12859038 0.1115129 -0.18724942 -0.21023291 -0.030119184 0.056100152 0.093110934 -0.07777042
-0.070801 -0.13134451 0.043027245 0.036522903 0.4539377 -0.021172157 0.09879273 -0.15031716
-0.1021616 -0.3799123 0.0072406204 0.11044724 0.030884515 0.19228499 -0.1259312 0.43414763
-0.20297544 -0.05436731 0.12699993 -0.52995414 0.15863493 -0.37580934 -0.023758838 -0.011937041
0.05328643 0.3712333 0.3254072 -0.024294158 0.089807175 -0.23814292 0.06457836 -0.39635128
0.22494009 0.03790536 -0.11313358 0.09534442 -0.092630655 -0.14773938 0.20768209 0.107577026
-0.017423257 0.29193595 -0.5296562 0.34008685 -1.0799619 0.14984125 0.12540138 0.3558681
-0.07811658 0.10998671 0.042072218 -0.751317 0.10684297 -0.18893725 -0.37058508 -0.5446407
0.28716692 0.42031196 -0.55954957 -0.23241012 0.105798446 0.005523937 0.22039981 -0.42605054
0.2495194 -0.6084666 -0.8617723 -0.5939635 -0.09121079 0.19797136 -0.22493215 -0.74220717
0.32443294 -0.2624569 0.27561522 -1.089971 -0.091980115 -0.0052064615 0.51903427 -0.23436204
0.09413113 -0.29615813 0.10335616 0.2435096 -0.004428274 -0.5760965 0.24699618 0.28495428
-0.25842386 -0.0071930625 0.18805617 -0.08320105 -0.80088544 0.2063895 0.30308285 0.2544071
-0.009335173 0.22396879 -0.5999828 -0.08908295 0.08559497 0.26231772 0.26810256 0.003947301
0.36601233 0.1889665 0.2331244 0.111236654 0.041828323 -0.33337596 -0.6550202 0.23118635
-0.31379366 0.16753782 0.005630601 -1.0595537 -0.21148589 -1.0097338 -0.7626911 0.09181782
-0.38552305 0.27026397 0.10073233 0.068696074 0.31736767 0.2395817 -0.16944024 -0.48450756
0.17448452 0.037061337 0.09840651 -0.06888139 -0.07134853 0.14978793 -0.03658143 0.00126124
-0.001348946 -0.9049237 0.58026403 -0.46481147 0.36347494 -0.0989991 -0.17171167 0.27999052
-0.084201984 -0.16000985 0.013691993 -0.037176162 0.24678051 -0.2211799 -0.30469334 0.19819175
0.15021129 0.27892405 0.15775837 0.019671202 -0.8629635 0.22030206 0.014948069 0.06722298
0.17848822 0.2444921 0.28178123 -0.051265888 0.39708734 0.28593066 -0.077136934 -0.047102377
-0.03490846 -0.23843212 0.14204682 -0.13154006 -1.885756 0.35946244 -0.18087342 -0.2800119

bias f4 [128]
00000000: 860f 303d f49b 01bc 79cd b2bb 0f04 29be
00000010: c935 66be 44e7 14be a4cb 13be c315 eebc
00000020: a967 bcbe 2f20 e5b9 f1f3 803d 492b 9ebc
00000030: 1737 9bbc b818 6fbe c19e 7e3c cca6 3abe
00000040: 2e5e d1bd a313 2ebe dcd1 7dbe 3331 913d
00000050: 048b 5e3d a95e 6abd 4e01 1bbd d5fa ed3d
00000060: 3cd1 cb3d 76c7 603d 7fab e6bd e0b5 ccbc
00000070: c029 edbd 807b 00bc c69a e23d d93d 3cbd
00000080: c410 f1bd 0bf2 c03d 014a 2fbe 1abf 4dbc
00000090: b91a 3bbd 442a 0b3d f4bb cbba 2c38 ec3b
000000a0: f75f 1a3e 94b8 263e a18a 67be 2d49 e83d
000000b0: 9c3a e2bb 386a 59bd ee43 cbbd 9a12 32bd
000000c0: 41af 3c3d dd14 52bd a91f 8dbc 1aa7 b9bd
000000d0: 4b2d 193e 66ef c8bc fd9e a6bd 7d29 44bd
000000e0: 68e2 923d 3e3d debd e877 81be 6e17 debd
000000f0: 5bf3 39bd dbe2 c13d 913f d8bc 7cd8 13bd
00000100: 3f96 213e 2bef d83d 27c8 493d b4f1 8cbd
00000110: cddd d4bd 4f9e 6ebe fff1 26be 8594 183d
00000120: 5cf2 7b3d e1d9 44bb de1c 7bbd 739a fbbd
00000130: 5c1c a8bd bdb4 8f3d 18ed 7fbe 880c 42bd
00000140: 6d83 313d 2208 97bc d12b 6a3d 1eaf 6a3d
00000150: 07fe 49bd e617 b8bd e5bc 7dbe 5c10 8abd
00000160: a784 72bd 362a eb3c 437a 3b3c c846 1b3c
00000170: 1de3 013e 18ae 34be 1d9f f8bd 7211 c2bb
00000180: f790 1bbd fe2b 00bd eb0c 65bd a6d1 63be
00000190: 2a81 12be 0959 4fbe 8630 023d eded 8ebd
000001a0: b76e a6bd ae0a 1e3d 6ec2 a8bd 2761 0bbd
000001b0: 07cb 6bbd 574b f53d 4297 a7bc 40c7 87bd
000001c0: b43d 5abd 205e a03d 9845 b1bd d3df ea3b
000001d0: d3bc 263d 62d3 ad3d 3ae3 07bc c55a 8abd
000001e0: 7911 20be 53b8 fa3c eb71 6dbd 1f55 bdbd
000001f0: 5940 e53d 94a5 04be f84f 35bd 6e55 e43d
0.042983554 -0.007910717 -0.005456623 -0.16505454 -0.22481455 -0.14541346 -0.14433151 -0.029063111
-0.36797836 -0.00043702262 0.06296528 -0.01930775 -0.018947167 -0.23349273 0.01554078 -0.1822769
-0.102230415 -0.16999678 -0.24787086 0.07089462 0.054331794 -0.05721918 -0.03784304 0.11620108
0.09952018 0.05487772 -0.11263179 -0.024989069 -0.11580229 -0.007841945 0.11064677 -0.04595742
-0.11770776 0.09421166 -0.17118074 -0.012557769 -0.04567978 0.033975855 -0.0015543685 0.0072088446
0.1507567 0.16281348 -0.22611476 0.11342082 -0.0069039594 -0.053079814 -0.09925066 -0.04347477
0.046065573 -0.051289428 -0.01722701 -0.09065075 0.14958684 -0.024528217 -0.08135793 -0.04789113
0.0717209 -0.10851525 -0.25286794 -0.108443126 -0.045398097 0.09467097 -0.026397498 -0.036095127
0.1577997 0.10592493 0.049263146 -0.06882039 -0.10393868 -0.23302577 -0.16303252 0.037251014
0.06151043 -0.0030037093 -0.061306827 -0.12285318 -0.08208534 0.07016895 -0.24992788 -0.047375232
0.043338228 -0.018436495 0.057170693 0.05729591 -0.049314525 -0.08988933 -0.24779089 -0.067414016
-0.05920854 0.028706651 0.011442724 0.009477325 0.12684293 -0.17644536 -0.121397234 -0.00592249
-0.037980046 -0.031291954 -0.055920523 -0.22247943 -0.14307085 -0.20248808 0.031784557 -0.069789745
-0.08126586 0.038584404 -0.082402095 -0.0340282 -0.05756667 0.119772606 -0.020457868 -0.06629801
-0.0532815 0.07830453 -0.08655852 0.007167795 0.04070742 0.08487584 -0.008293921 -0.06755594
-0.15631665 0.03060547 -0.05796997 -0.09244751 0.11193914 -0.12953788 -0.044265717 0.11149107

weight f4 [24, 128]
00000000: e13f b3be 06a2 9abd 4815 bebc 53bc 1ebe
00000010: aaf0 5c3e e015 543e f663 3dbe 07ba 7c3e
00000020: 2ccb 1b3f b3c1 d23d d498 2ebe 8bc8 0cbf
00000030: 79e6 00be 6b3c 853e 17f8 993c 3181 763d
00000040: 7cd0 f7bd b839 4a3f f5c3 8d3e 6c0c 3abf
00000050: d483 a73e 4a01 663d ec4c 133e b1c0 433e
00000060: 8654 7fbc 1068 39bf 4dfc b73d 8de5 0f3c
00000070: 0949 0bbf 81e3 c3be 9e5b b2bd 1e8f bd3b
00000080: de85 423d b287 0b3e 2ade 47bd 70df 38be
00000090: 7394 4b3c a73d 42be f012 cc3d 4929 7fbd
000000a0: 159b d3be a8a3 bbbe d55f 8f3e c875 3abf
000000b0: bd05 68bd f5fb 013e 5dcf ec3d 042f f13d
000000c0: 99e9 023d 4fba 37bd 52ff 9c3e a5a7 563f
000000d0: df4f 1d3d 9b20 95be 2de2 07bd 928f 2abd
000000e0: 57e1 efbd 5a6a 523e 44e1 983c bc72 83bd
000000f0: 2290 ce3d ebfd 0d3e 4a93 d83d d319 5fbe
00000100: 7236 0cbe c7dd 98be 6074 5ebe 62e9 d53e
00000110: d127 373e 2a12 a73e a2f7 f2bc a2bb 7e3d
00000120: cf53 123e c95d 063e 0449 743e 0ecc eebd
00000130: 7169 a13d 5faa 5ebf dfeb 9dbd 0e47 153e
00000140: 1753 08be 4810 a3bd c9a0 25bd bc91 ac3d
00000150: b109 f93c 7b2a d23d 81d0 b7bd c8d3 873e
00000160: 5f15 88bc ffe3 cf3d 26f1 e33d 9ddd 90bf
00000170: fff3 05bf 7ac5 0b3f 54d3 4a3d 43d1 1c3c
00000180: a2f3 6cbd 3198 8ebe 31d0 66bd fd3a 2bbe
00000190: 1c85 c73d 4201 0d3f 005c 103c afd2 b1bd
000001a0: d7ac 123f 9c01 a73c b8b2 a33e fdd8 2fbc
000001b0: b09c 43be e2d7 8ebe c7d3 5abe 31a8 a9bd
000001c0: 9ea7 67be c50a 373e 64e7 113d 0ef7 6e3e
000001d0: d58c 213d 3061 2cbe eda1 00bf 2292 093e
000001e0: 1808 933e 7633 24be da77 88be 8b5d 183e
000001f0: 0202 8a3f 7f25 713f c97b 85bf f613 043e
00000200: 6cba 9ebc a953 b1bd 2030 2dbe 3ae2 b3bd
00000210: 8e29 aa3e 6ff0 d33d f2db 9e3e 203a dfbd
00000220: 85f8 0e3f 9075 cb3d e91e af3c d45f 3cbe
00000230: 08fc 4fbd b19d c23e d54f 003e 7714 5c3e
00000240: 19ed 8c3e 51fa 093f e982 863e 9d5b a2bd
00000250: 210f aa3d 5d39 ed3c 4633 313e c105 01be
00000260: 6429 4bbe 8120 66be f030 833e e82c 1cbd
00000270: a50e e43e c660 883e 7b20 3b3f 687c bf3d
00000280: e246 43ba 52aa 933d 4b44 91be ede2 02be
00000290: 3a75 37bc 039c 603e c0f6 4e3e 9984 64bd
000002a0: 5410 cebc 2656 823e eb31 343e 331a 053d
000002b0: 5b89 21be c997 63be 8f5c e33d 4f70 bf3e
000002c0: a2f1 213e 0b41 793c 8bf6 47bf 6053 143e
000002d0: 183d 103e 995f 18bf bebc 123e 9d51 c33c
000002e0: 7781 31bf 4d25 76bd e4ce 78be d7eb 893e
000002f0: 7f0b f6bd 98dd 72be d344 a33d 3e7a 1cbe
00000300: 2231 733e e0f7 e53d 0ef0 8bbe 5580 c73e
00000310: 2101 d23d 1d8d 193e 5bd1 673e 9607 023f
00000320: e40e 233e e671 e23b 60d9 a03e b1d8 8a3e
00000330: 6a0f 7b3d d1d9 5cbe a82f 193e 560a a33c
00000340: 502c d43e a23b c53e 4a1f b8be a147 a23b
00000350: d062 08bd c72f fcbe 5825 343f f64f 8a3e
00000360: bdbc c4bf 1b34 d0bd e2de 393e 0817 cabe
00000370: fc74 7f3e 920b bf3e bc0d 88be 8def 5cbc
00000380: 915d 0e3e e878 4dbf a2e0 4b3c 5b3e dcbc
00000390: 7782 713d 6113 1e3f f10b 1b3d 1d08 fcbe
000003a0: f813 68be c934 8e3f 87de 733e 0d96 dc3c
000003b0: a5e7 6ebd f377 70be 983b 93bf 1545 85bd
000003c0: f8f9 debe 0497 a13d 98cc cabc 9e76 013f
000003d0: 0a20 75bd 946d 753c 05c1 abbe 035a 9a3e
000003e0: ea3e 1f3f a4cc 46bd 1f07 5dbf 8f74 e33e
000003f0: e797 1bbd 9aed 273e 0e8c ba3e 06c6 493e
-0.35009673 -0.07550435 -0.023203507 -0.15501527 0.21576181 0.2071147 -0.18495163 0.24680339
0.6085689 0.102908514 -0.17050487 -0.54993504 -0.12587918 0.26022658 0.018795056 0.0601818
-0.12100312 0.7899432 0.27688566 -0.72675204 0.32717764 0.056153573 0.14384812 0.19116475
-0.015584117 -0.7242441 0.089836694 0.0087827565 -0.5440832 -0.3825951 -0.08708881 0.005784883
0.047490947 0.13625982 -0.048795857 -0.18053985 0.01242553 -0.18968831 0.099645495 -0.062295232
-0.41329256 -0.36648297 0.28002802 -0.7283597 -0.056646097 0.1269377 0.11562989 0.11776546
0.031961057 -0.044855412 0.30663544 0.83849555 0.03840625 -0.29126438 -0.033174682 -0.041640826
-0.11712902 0.20548382 0.018662103 -0.06418368 0.10086085 0.13866393 0.10574968 -0.21787195
-0.13692644 -0.29856703 -0.21724081 0.4177962 0.17886283 0.32631046 -0.029659096 0.06219066
0.14289783 0.13121714 0.23855978 -0.11660014 0.078814395 -0.86978716 -0.077110045 0.14577886
-0.13312946 -0.0796209 -0.04043654 0.08426234 0.030400129 0.10262009 -0.08975316 0.26528764
-0.016611753 0.10150909 0.1112998 -1.1317631 -0.52325433 0.545982 0.049517944 0.009571376
-0.057849534 -0.27850488 -0.05635089 -0.16721721 0.097421855 0.55080044 0.008810997 -0.08682763
0.5729498 0.02038651 0.3197229 -0.010732886 -0.1910274 -0.2789908 -0.21369849 -0.08284033
-0.22622535 0.17875202 0.035621062 0.23336431 0.03944095 -0.16833949 -0.5024708 0.13434651
0.28717113 -0.16035256 -0.2665394 0.14879434 1.0781863 0.9419784 -1.0428401 0.1289824
-0.019376002 -0.08658535 -0.1691289 -0.08783384 0.3323483 0.103485934 0.3102718 -0.10899758
0.5584796 0.09934533 0.021377044 -0.1839593 -0.050777465 0.38010934 0.12530454 0.21492182
0.2752464 0.5389758 0.26271752 -0.0792763 0.08303667 0.028958017 0.17304716 -0.12599851
-0.19840008 -0.22473337 0.25623274 -0.038128763 0.44542423 0.26636332 0.73096436 0.093499005
-0.0007449222 0.072102204 -0.28372416 -0.12781878 -0.011197383 0.21934514 0.20211315 -0.055790517
-0.02515427 0.2545635 0.17597167 0.03249569 -0.15775053 -0.2222587 0.111016385 0.37390372
0.15814832 0.015213261 -0.7811057 0.1448493 0.14085805 -0.5952087 0.14329812 0.023842627
-0.6933817 -0.060094167 -0.24297673 0.26937744 -0.120139115 -0.23717344 0.079721116 -0.15281007
0.23749211 0.11228919 -0.27331585 0.38965097 0.102541216 0.14995237 0.22638457 0.50792825
0.15923649 0.0069105504 0.31415844 0.27118447 0.061293997 -0.21567465 0.14959586 0.01990239
0.41440058 0.3852206 -0.35961372 0.0049523865 -0.03329736 -0.492552 0.7036948 0.2701413
-1.5370098 -0.10166188 0.1815143 -0.39470696 0.2494697 0.37313515 -0.26572978 -0.013484848
0.1390288 -0.80262613 0.012443693 -0.026885202 0.05896231 0.6174832 0.037853185 -0.4922494
-0.22663867 1.1109859 0.23815356 0.026927019 -0.058326382 -0.23483257 -1.1502562 -0.06507317
-0.43550086 0.07890132 -0.024755761 0.5057162 -0.059845008 0.014979739 -0.335457 0.30146798
0.62205374 -0.048535004 -0.8633899 0.44424865 -0.037986662 0.16399232 0.36434978 0.19704446

bias f4 [24]
00000000: c960 8e3e ef91 cb3e f7e0 8e3d 7067 443e
00000010: ea00 8f3e 2abf 2fbd 990c 323e ed84 923e
00000020: ca59 393e e419 883e 5805 863e d198 d83e
00000030: 46bc 213e 74ae cb3d 8294 2f3e 9b15 a73d
00000040: ac37 9d3e 89c4 923e 2e38 b63e 639c b73e
00000050: 41cd 983e fa75 773e 7420 283e 5499 a73d
0.27808216 0.39759776 0.069765024 0.19180083 0.27930385 -0.042906918 0.17387618 0.2861704
0.18100658 0.26582253 0.26175952 0.4230409 0.15794477 0.09945384 0.17146495 0.08158418
0.30706537 0.2866557 0.35589737 0.358615 0.29844096 0.24166098 0.1641863 0.08183542
