player-model/dqnconv_3_greedy_94_greedy.pt (torch, 704008 bytes, 23 tensors)

weight f4 [16, 2, 3, 3]
0	0x3d911bf3	0.07085409
1	0xbe344af7	-0.17606722
2	0xbd0186b1	-0.031622592
3	0xbcc1919b	-0.023629
4	0x3f0713b5	0.52764446
5	0x3e0bcda8	0.1365267
6	0xbdf4836c	-0.11939129
7	0xbeadcdd3	-0.33946094
8	0x3d7448be	0.059639685
9	0x3ca61ed7	0.020278377
10	0xbe37adc6	-0.17937383
11	0x3dbdf4a6	0.092751786
12	0xbe10fb3f	-0.14158343
13	0x3e7cdf21	0.24694492
14	0xbe438367	-0.19093095
15	0xbd0bb2b5	-0.034105975
16	0x3ea080ba	0.3134821
17	0x3e180d82	0.14848903
18	0xbd0c4b9d	-0.034251798
19	0x3ea22357	0.31667587
20	0x3d483234	0.048876002
21	0xbb991faf	-0.0046729664
22	0x3edc6b09	0.4305041
23	0x3d56f0d3	0.05247576
24	0xbd692712	-0.056922026
25	0x3cbcffac	0.023071133
26	0x3d2175af	0.039418872
27	0x3d749627	0.05971351
28	0x3eda3696	0.4261977
29	0x3e1515f1	0.14559151
30	0xbda403db	-0.08008548
31	0x3d0b7923	0.03405107
32	0xbd4519b1	-0.048120204
33	0xbd59b683	-0.053152572
34	0x3daf9318	0.08572978
35	0xbd812402	-0.06305696
36	0xbcb36cbe	-0.021902438
37	0x3ec3915c	0.38196838
38	0x3aaa3e1e	0.0012988483
39	0xbb3d9e1f	-0.002893336
40	0x3ec02503	0.37528238
41	0x3c708ac8	0.0146815255
42	0x3c839a97	0.016064925
43	0xbc944406	-0.018098842
44	0x3c06a15b	0.008217181
45	0x3c167f4a	0.0091856215
46	0xbf0014bc	-0.5003164
47	0x3ec362ec	0.3816141
48	0xbc8ecdc0	-0.017432094
49	0x3b16af18	0.0022992548
50	0x3b0c9619	0.002145177
51	0xbc1d61c5	-0.00960583
52	0x3c68c3b3	0.014206815
53	0x3c87708e	0.016533162
54	0x3e20b353	0.15693407
55	0x3dc11115	0.09427086
56	0x3d62f38c	0.055408046
57	0x3ed8eacf	0.42366645
58	0xbcfb7fd9	-0.030700611
59	0xbd312c03	-0.043254863
60	0x3da5d54c	0.08097324
61	0x3d76c593	0.060247015
62	0x3d3425ed	0.04398148
63	0xbdc096c3	-0.094037555
64	0x3d1549e4	0.03644742
65	0xbdaf6bc7	-0.08565479
66	0xbee82dbd	-0.45347396
67	0x3f124dfa	0.5715023
68	0x3bb639c9	0.0055610877
69	0x3d8179cf	0.06322061
70	0x3e01a4eb	0.12660567
71	0xbd5b980f	-0.05361181
72	0xbc5e40ff	-0.013565301
73	0x3eac8031	0.33691552
74	0xbac3652d	-0.0014907472
75	0xbc253d92	-0.01008548
76	0xbeff4b04	-0.4986192
77	0x3b87bf86	0.0041427044
78	0xbbfa4a47	-0.007638249
79	0xbc0f10ea	-0.00873206
80	0xba5b924e	-0.0008375988
81	0x3bee9fb5	0.007282222
82	0x3ebd3d70	0.36960936
83	0x3eb6ee48	0.3572867
84	0xbc17ceca	-0.009265611
85	0x3c94caf8	0.01816319
86	0xbb1d9995	-0.002404784
87	0xbcddd8c7	-0.027080907
88	0x3b12dd17	0.0022409612
89	0xbc4ec065	-0.012619113
90	0xbc9e4f9c	-0.01932507
91	0xbc751b30	-0.014960095
92	0x3ba914b7	0.00515994
93	0xbf0d9093	-0.5529873
94	0x3bf52870	0.007481627
95	0x3c5bdb85	0.013419037
96	0x3eba18d0	0.36347055
97	0xbb423288	-0.002963217
98	0xbc771a2b	-0.0150819225
99	0xbab16602	-0.0013534429
100	0x3c6cdd61	0.014457078
101	0xbc329279	-0.01089918
102	0x3ebd5455	0.36978403
103	0x3eba9af8	0.36446357
104	0xbbc54632	-0.006020331
105	0xbc9eecb7	-0.019399984
106	0x3cb5e7de	0.02220529
107	0x3cc8bcad	0.02450403
108	0xbc8ba3ba	-0.017045844
109	0xbda7cac3	-0.081929706
110	0xbc5c5dc4	-0.01345009
111	0xbf079996	-0.5296873
112	0x3d09c3a4	0.033633843
113	0xbb14a605	-0.0022681963
114	0x3f18c999	0.59682614
115	0xbd823c63	-0.06359174
116	0xba6e60f3	-0.0009093426
117	0x3d7c6a77	0.06162497
118	0x3c7d1a71	0.015448199
119	0x3dad8a3d	0.084736325
120	0xbf0fee4a	-0.56222975
121	0xbe07cb29	-0.13261093
122	0xbd3fde6c	-0.046842977
123	0x3d1a0f36	0.037612163
124	0xbd187dcd	-0.037229348
125	0x3dc14391	0.094367154
126	0xbd330150	-0.043702424
127	0x3cd831c0	0.02639091
128	0x3dfb6680	0.1227541
129	0x3e05c8d0	0.13064885
130	0xbdbd118a	-0.09231861
131	0xba8b7ddc	-0.0010642367
132	0xbf569c3a	-0.8383213
133	0xbf415a3f	-0.7552833
134	0x3d0eee13	0.034895014
135	0x3d9e309e	0.07724117
136	0x3d54675b	0.05185638
137	0xbdc6df0d	-0.09710512
138	0x3e8c3ad3	0.2738863
139	0xbf40f9d5	-0.75381213
140	0x3e03f05e	0.12884662
141	0x3deb4f18	0.11489695
142	0xbe7d83c4	-0.24757296
143	0x3e22c57f	0.15895651
144	0x3e06fada	0.1318163
145	0x3e5c47d0	0.2151177
146	0x3c3970e5	0.01131842
147	0xbf1c86b3	-0.61143035
148	0x3c1e38ce	0.009657098
149	0xbe5cae15	-0.21550782
150	0xbde50502	-0.11182596
151	0x3e07e6c1	0.1327162
152	0x3e185621	0.14876606
153	0x3e86c18d	0.26319543
154	0xbeb89aa5	-0.36055484
155	0xbf0ce662	-0.55039036
156	0xbe99e240	-0.30055428
157	0xbd147117	-0.036240663
158	0xbd07694b	-0.0330594
159	0xbdcc155c	-0.099650115
160	0x3e196567	0.14980088
161	0xbd3bf085	-0.045883674
162	0x3eabac1e	0.33529752
163	0x3cacae0a	0.021079082
164	0xbc04a146	-0.008095091
165	0x3eb64db6	0.35606164
166	0x3cabba57	0.020962877
167	0x3a503214	0.00079420325
168	0x3b8a7a6c	0.0042260196
169	0xbd2b0a49	-0.041757856
170	0x3c5e6ec0	0.01357621
171	0x3eb2b35c	0.34902465
172	0xbf461ed8	-0.77390814
173	0x3bd00367	0.006348062
174	0xbc466487	-0.0121089285
175	0xbc10fb38	-0.008848958
176	0x3c96359a	0.018336106
177	0x3cb1812c	0.02166804
178	0x3bfd5f83	0.007732333
179	0x3c7ea53c	0.015542325
180	0x3d341a68	0.043970495
181	0x3dd848b6	0.105607435
182	0x3d9c0359	0.07617826
183	0x3e696ec3	0.22796158
184	0x3e9de2a7	0.30836985
185	0x3e0eddd3	0.13951807
186	0xbe002420	-0.1251378
187	0xbe7dda5e	-0.24790332
188	0xbd55ff83	-0.052245628
189	0xbd8dfdd7	-0.06933182
190	0x3d286d58	0.041119903
191	0xbdbc4960	-0.09193683
192	0x3eb3d4ca	0.35123283
193	0x3f08072e	0.53135955
194	0x3e5cd88b	0.2156698
195	0x3ca89312	0.020577941
196	0x3e52ca88	0.20585072
197	0x3bf9bdec	0.0076215174
198	0xbc50c77d	-0.012742874
199	0xbecfce9e	-0.40587324
200	0x3d584f69	0.052810106
201	0xbd379d8e	-0.04482799
202	0xbe90ec11	-0.28305104
203	0x3de270dd	0.11056683
204	0xbcf8a669	-0.030352788
205	0x3d51a5c2	0.05118347
206	0xbd775615	-0.06038483
207	0x3d0b7c7e	0.034054272
208	0x3f3b1aad	0.7308758
209	0xbe9832db	-0.297263
210	0xbd877961	-0.06614948
211	0xbcb62ca3	-0.022238081
212	0x3c2ad86f	0.010427578
213	0xbd0d89b0	-0.034555137
214	0xbc110c41	-0.008853019
215	0x3c2787e7	0.010225273
216	0xbd2f1f05	-0.042754192
217	0xbdc12ec2	-0.094327465
218	0x3afa1bbf	0.0019081755
219	0xbe1872bb	-0.14887516
220	0xbe23614b	-0.15955083
221	0x3dee0874	0.11622706
222	0x3e5afdb5	0.21385844
223	0x3e63333a	0.2218751
224	0x3e9f0213	0.3105627
225	0x3d45137b	0.04811428
226	0x3e73ca14	0.23807555
227	0xbc453b15	-0.012038012
228	0xbe905c61	-0.2819548
229	0x3f044b76	0.51677644
230	0xbddd25d0	-0.10798228
231	0xbe3a0af4	-0.18168241
232	0x3d4f1b29	0.05056301
233	0x3e313390	0.17304826
234	0x3e5a2795	0.21304162
235	0xbe504678	-0.20339382
236	0xbce9634d	-0.028489733
237	0x3eb634a6	0.35587043
238	0x3eb72b03	0.35775003
239	0x3e5a7205	0.21332557
240	0x3e9f22d0	0.31081247
241	0x3c411be7	0.011786438
242	0x3d8626e4	0.065503865
243	0xbdd23b98	-0.10265273
244	0x3e764c41	0.24052526
245	0xbe04f662	-0.12984613
246	0x3e79c5c0	0.24391842
247	0xbec95e7f	-0.39329907
248	0xbd35bca8	-0.04436937
249	0x3cd1866c	0.025576793
250	0xbd8d80b4	-0.06909314
251	0xbdcf024e	-0.101078615
252	0x3debb48c	0.11509046
253	0xbdabed45	-0.08394865
254	0xbd32ad5e	-0.043622367
255	0xbf6eb240	-0.9324074

bias f4 [16]
0	0xbe684daa	-0.22685876
1	0xbf1fc0da	-0.62403643
2	0xbec071ab	-0.37586722
3	0xbe7a46d9	-0.24441089
4	0xbec09ad2	-0.3761812
5	0xbec3fa0e	-0.38276714
6	0xbdb6a880	-0.089188576
7	0xbd158196	-0.036500536
8	0xbca5a995	-0.020222465
9	0xbec49c77	-0.38400623
10	0xbeb6af05	-0.35680404
11	0xbe46e81a	-0.19424477
12	0xbe94b404	-0.2904359
13	0xbd826e51	-0.063686974
14	0xbe9d0954	-0.3067118
15	0xbe2f0954	-0.17093402

weight f4 [16]
0	0x3e453a03	0.19260411
1	0x3eb2c4be	0.34915727
2	0x3f45f672	0.7732917
3	0x3ea2060b	0.31645235
4	0x3f34e17c	0.7065656
5	0x3f22d73b	0.63609666
6	0x3e370f5d	0.17876954
7	0x3e6b5730	0.22982478
8	0x3db20929	0.086931534
9	0x3f2fcd4f	0.6867265
10	0x3e3e1aea	0.18564954
11	0x3e9e23f7	0.30886814
12	0x3dad3315	0.08457009
13	0x3e4a4376	0.19752297
14	0x3e7e0851	0.2480786
15	0x3e174bc4	0.14774996

bias f4 [16]
0	0xbde1832d	-0.11011348
1	0xbee4cea5	-0.44688907
2	0xbe9e3177	-0.30897114
3	0x3d17f6a4	0.03710045
4	0xbe7f4dde	-0.24932048
5	0x3c6e03d5	0.014527281
6	0x3c5b90d9	0.013401234
7	0x3d8fc7ca	0.070205286
8	0xbd5e352c	-0.054249927
9	0xbe21b5be	-0.15791985
10	0xbe6db824	-0.23214775
11	0xbe95cfbc	-0.2926005
12	0x3b54e430	0.0032484643
13	0xbeae0f4c	-0.33996046
14	0xbdb97006	-0.0905457
15	0xbd0e491f	-0.034737702

running_mean f4 [16]
0	0x3dccd7a4	0.10002068
1	0x3e5b158c	0.21394938
2	0x3dbe96fd	0.093061425
3	0x3e8d0a7e	0.27547067
4	0x3d90c936	0.07069628
5	0x3da48467	0.08033066
6	0x3c8b4bb6	0.017003875
7	0x3d125c8f	0.035732802
8	0x3cb882c1	0.022523286
9	0x3d035faa	0.032073654
10	0x3ee6f7a3	0.45110807
11	0x3daf9fad	0.085753776
12	0x3e4f8d7d	0.20268817
13	0x3ec83bdb	0.39108166
14	0x3dceb755	0.100935616
15	0x3ed0905e	0.40735143

running_var f4 [16]
0	0x3cd25a32	0.025677774
1	0x3db8ca60	0.09022975
2	0x3ca6cdb3	0.020361757
3	0x3d6cb792	0.057792254
4	0x3c51e537	0.012810997
5	0x3c951f4e	0.018203404
6	0x3be5a1a4	0.0070077945
7	0x3bf72c3a	0.007543114
8	0x3bbf32b8	0.0058349036
9	0x3c6bc27e	0.014389632
10	0x3e0ddbf8	0.13853443
11	0x3cfacfb4	0.030616619
12	0x3db61e9e	0.088925585
13	0x3dbdb354	0.0926272
14	0x3d110eed	0.035414625
15	0x3de005c9	0.109386034

weight f4 [32, 16, 3, 3]
0	0x3e914209	0.28370693
1	0x3d784007	0.060607936
2	0x3d80ef4d	0.06295643
3	0x3dabbebe	0.083859906
4	0xbf52c650	-0.8233385
5	0x3e09f80b	0.13473527
6	0x3c53ccee	0.012927277
7	0x3e09d86f	0.13461469
8	0x3e818e90	0.2530408
9	0x3d8f6844	0.07002309
10	0x3bfaafe7	0.0076503637
11	0x3e214aba	0.15751162
12	0x3d89c117	0.06726282
13	0xbea3c3e9	-0.31985405
14	0x3de89ccb	0.11358031
15	0xbc0a3a28	-0.008436717
16	0xbda80c20	-0.08205438
17	0x3e3ab00c	0.18231219
18	0xbe7838b1	-0.24240376
19	0x3e1eeb22	0.15519384
20	0x3e20a3a1	0.1568742
21	0x3e013d00	0.12620926
22	0xbdab871c	-0.083753794
23	0x3d234d1e	0.039868467
24	0x3dce513e	0.100740895
25	0x3dd751f7	0.105136804
26	0x3e9bc673	0.30424842
27	0xbe44330f	-0.19160102
28	0xbebcda5a	-0.3688534
29	0xbd5bef0c	-0.05369477
30	0xbe1ab78e	-0.15109083
31	0xbedca251	-0.43092588
32	0xbe0f9305	-0.14020927
33	0x3de746b6	0.11292784
34	0xbd5342e9	-0.051577482
35	0x3db03882	0.08604528
36	0xbdd06125	-0.10174779
37	0x3e366d9c	0.1781525
38	0x3e8e164b	0.27751383
39	0xbd4dc508	-0.05023673
40	0xbe43fd4e	-0.19139597
41	0x3d2b77be	0.041862242
42	0xbde9215d	-0.11383317
43	0x3e331e61	0.17492057
44	0x3e2bb65f	0.16768788
45	0x3e2dbd14	0.16966659
46	0xbdc153ca	-0.094398096
47	0xbf2fe2e5	-0.6870559
48	0xbc56f268	-0.013119318
49	0x3d789a43	0.06069399
50	0xbcc68d0c	-0.024237178
51	0x3e2966dd	0.16543145
52	0x3e15949d	0.14607473
53	0x3dafeded	0.085903026
54	0xbd3d163c	-0.046163782
55	0x3eeec5d5	0.4663531
56	0xbdfacf79	-0.122466035
57	0x3b2f8bd6	0.002678623
58	0xbf1913cf	-0.5979585
59	0x3d9d4fb6	0.07681219
60	0xbda53505	-0.08066753
61	0xbd920002	-0.07128908
62	0x3ea69c1a	0.3254097
63	0xbb8e8ef0	-0.0043505356
64	0x3e539299	0.20661391
65	0xbe068362	-0.13136056
66	0xbe1fbc35	-0.15599139
67	0xbd0b94dc	-0.03407751
68	0xbf1f5c24	-0.6224997
69	0xbec64146	-0.38721675
70	0xbe4afd5c	-0.19823211
71	0xbe3d527c	-0.18488497
72	0x3d2c614b	0.042084973
73	0x3eabb79f	0.3353853
74	0x3e6a53e6	0.22883567
75	0x3df10b4a	0.11769731
76	0x3d9febfe	0.07808684
77	0xbd957d93	-0.07299342
78	0xbb3fed02	-0.0029285555
79	0xbe9d0dad	-0.30674496
80	0x3dcc99ac	0.09990248
81	0xbcb58978	-0.022160277
82	0xbc8f0ca2	-0.017462078
83	0x3dc0d03a	0.09414716
84	0x3e27a39c	0.16371006
85	0x3ce09c9e	0.02741843
86	0xbf186ee5	-0.5954421
87	0x3de77340	0.11301279
88	0x3decfa5f	0.11571192
89	0x3b0448f6	0.002018509
90	0xbd08c8eb	-0.033394735
91	0xbdae9075	-0.08523647
92	0xbebbd0c1	-0.36682704
93	0xbd876b30	-0.06612241
94	0xbe935902	-0.28778845
95	0xbe7e8938	-0.24857032
96	0x3efa2909	0.48859432
97	0xbca05c11	-0.01957515
98	0x3e03363f	0.12813662
99	0x3e776e4a	0.24163166
100	0x3e34329c	0.17597431
101	0x3da9cbed	0.08290849
102	0x3e3696a9	0.1783091
103	0x3e8bc63a	0.27299672
104	0x3c262cf7	0.010142556
105	0x3e54aabe	0.20768258
106	0xbeb0c2da	-0.3452366
107	0x3d800593	0.06251063
108	0xbed51067	-0.41614076
109	0x3ec9a01a	0.3937996
110	0xbe1c9fef	-0.15295385
111	0xbb6aa52d	-0.003580402
112	0xbe0fb868	-0.14035189
113	0x3ebabd96	0.36472768
114	0xbe0c1ab4	-0.13682061
115	0xbd56f19c	-0.05247651
116	0x3f01acfe	0.5065459
117	0x3e454e58	0.19268167
118	0x3e8d4ed3	0.275992
119	0xbd7eb343	-0.062182676
120	0x3e2c144b	0.16804616
121	0x3e82f02e	0.25573868
122	0xbe8877a2	-0.26653773
123	0x3e0f6061	0.1400161
124	0x3cf9d53c	0.030497186
125	0x3e3f1eb0	0.1866405
126	0x3d149ee4	0.036284342
127	0xbeeeeb76	-0.46664017
128	0xbea5ebeb	-0.32406554
129	0xbd9d8e22	-0.07693125
130	0xbed75ccf	-0.42062995
131	0x3e8b4cb7	0.27206966
132	0x3e17f82f	0.14840768
133	0xbe53ccf9	-0.2068366
134	0x3e81819d	0.252942
135	0xbe838549	-0.25687626
136	0x3db372aa	0.08762105
137	0xbc9d621b	-0.01921182
138	0xbe9e2afc	-0.3089217
139	0xbe33cd58	-0.17558801
140	0xbec440b2	-0.3833061
141	0xbe180d2e	-0.14848778
142	0x3e62fc49	0.22166552
143	0xbe9a51eb	-0.30140623
144	0x3e246221	0.16053058
145	0xbe12cc54	-0.14335757
146	0x3da9723f	0.08273744
147	0x3e5012f3	0.20319729
148	0xbe0f0dc0	-0.13970089
149	0x3d20c869	0.039253626
150	0xbdee32e7	-0.116308026
151	0xbd4e8e65	-0.050428767
152	0xbdab636b	-0.08368572
153	0xbd038677	-0.032110658
154	0x3da94dba	0.08266778
155	0x3e5a8dde	0.2134318
156	0xbe474ee1	-0.19463684
157	0x3d12f5fb	0.035879117
158	0x3e196bc4	0.14982516
159	0xbf7f9a93	-0.99845237
160	0xbddb161b	-0.10697576
161	0x3b03b574	0.0020097168
162	0xbcf00023	-0.02929694
163	0xbd2b3479	-0.04179809
164	0xbd296b6c	-0.04136221
165	0x3cf1105c	0.029426746
166	0x3cccaf0e	0.024985816
167	0x3c6d83d5	0.014496763
168	0xbf8ba338	-1.0909185
169	0x3e2df7d0	0.16989064
170	0xbc1fc1f7	-0.009750835
171	0x3d2f92ac	0.042864487
172	0xbd710bda	-0.058849193
173	0x3c0a0fb9	0.0084266
174	0x3e2fb6ec	0.17159623
175	0x3ec828e6	0.39093703
176	0xbb80b4e0	-0.003927812
177	0x3d4cce15	0.050001223
178	0x3d2357ec	0.03987877
179	0x3e1e5d0a	0.15465179
180	0x3d87e47f	0.06635379
181	0xbd6a5663	-0.05721129
182	0xbd81431d	-0.06311629
183	0x3daed447	0.085365824
184	0xbdba481b	-0.09095784
185	0x3d870b65	0.0659397
186	0xbf9f893e	-1.2463758
187	0x3d54c018	0.051941007
188	0x3c76c6b0	0.015062019
189	0x3d1c9164	0.038224593
190	0x3dea7681	0.11448384
191	0xbd5e96ef	-0.05434316
192	0x3b57fb7f	0.00329563
193	0xbf40ac07	-0.7526249
194	0x3aab7f60	0.0013084225
195	0xbcdd7ec6	-0.02703799
196	0x3e81cc9d	0.2535142
197	0x3c6dff28	0.014526166
198	0xbd47a80a	-0.04874424
199	0x3e3ce32d	0.18446036
200	0x3d663665	0.05620422
201	0xbce6d4ac	-0.028177582
202	0x3e15450d	0.14577122
203	0xbdea26b1	-0.11433161
204	0x3d9ca40b	0.07648476
205	0x3e46b2ff	0.19404219
206	0x3dbdad30	0.092615485
207	0xbdec291a	-0.11531277
208	0xbdbde582	-0.09272291
209	0xbd8a6f1e	-0.06759475
210	0xbd693a19	-0.056940172
211	0xbe0d2140	-0.13782215
212	0x3d0c423e	0.03424286
213	0xbda15401	-0.078773506
214	0xbd429d3f	-0.047513243
215	0x3d6fdabc	0.05855821
216	0x3e48c3e3	0.19605975
217	0x3cef6e61	0.029227437
218	0x3cb62cc8	0.02223815
219	0xbda883cf	-0.082282655
220	0xbd342a25	-0.043985505
221	0x3da4f47e	0.08054446
222	0xbde23909	-0.11046035
223	0xbe3f326d	-0.1867158
224	0x3b7c46a6	0.0038494258
225	0x3ca43193	0.02004317
226	0x3cfd818d	0.030945564
227	0x3c525b48	0.012839146
228	0x3d8a1a5f	0.06743311
229	0x3d688248	0.05676487
230	0xbd694426	-0.056949757
231	0x3e46a0a6	0.1939722
232	0xbf2ba7c6	-0.67052877
233	0x3ca16fcf	0.019706635
234	0x3e24f8cb	0.16110532
235	0x3e8cd699	0.27507475
236	0x3d808399	0.062751
237	0x3d258899	0.040413473
238	0x3e07dbcb	0.13267438
239	0x3e663a28	0.22483122
240	0xbec99446	-0.39370936
241	0x3d4555e7	0.048177626
242	0xbccd3849	-0.025051253
243	0x3bbebe31	0.0058210124
244	0x3d204c67	0.039135363
245	0x3dcaa578	0.09894842
246	0xbde90e5a	-0.113796905
247	0x3e0b4233	0.13599472
248	0x3dbcd424	0.0922015
249	0x3eb890f2	0.36048084
250	0x3e3da990	0.18521714
251	0x3dec65cd	0.115428545
252	0x3cc76e77	0.024344666
253	0xbe052374	-0.13001806
254	0xbc1317d1	-0.008977846
255	0x3e3506c5	0.17678364

bias f4 [32]
0	0xbea81085	-0.32825103
1	0xbe9aa99e	-0.30207533
2	0xbe4f50cd	-0.20245667
3	0xbf25bac4	-0.64738107
4	0xbe489709	-0.19588865
5	0xbe181033	-0.1484993
6	0xbe09f5f8	-0.13472736
7	0xbe6493d2	-0.22322014
8	0xbe8181fa	-0.25294477
9	0xbeb98dca	-0.3624099
10	0xbec0ec41	-0.37680247
11	0xbf0d748e	-0.55255973
12	0xbe829531	-0.2550445
13	0xbe76b6fe	-0.24093243
14	0xbcac92e9	-0.021066146
15	0xbf05f1c7	-0.5232205
16	0xbe766568	-0.24062121
17	0xbe8fb0cb	-0.2806457
18	0xbe6b19c7	-0.22959052
19	0xbe5f1018	-0.21783483
20	0xbe829a61	-0.25508407
21	0xbee69fa4	-0.4504367
22	0xbefb8b12	-0.4912954
23	0xbe6391bc	-0.22223562
24	0xbded82b1	-0.11597193
25	0xbeb3c402	-0.3511048
26	0xbe4f92a9	-0.2027079
27	0xbed51dad	-0.41624203
28	0xbebdc183	-0.370617
29	0xbf2dcce5	-0.6789077
30	0xbec90eb3	-0.39269027
31	0xbdbf874e	-0.09351979

weight f4 [32]
0	0x3d2c20f8	0.04202363
1	0x3ea76dc6	0.32700938
2	0x3d40d74a	0.047080316
3	0x3d8c99d4	0.06865278
4	0x3d5f2912	0.054482527
5	0x3cc027b7	0.023456438
6	0x3d3ba930	0.045815647
7	0xbb198ece	-0.0023431065
8	0x3d10ecb3	0.035381984
9	0x3d9a62e1	0.07538391
10	0xbcad68c8	-0.021168128
11	0x3ed4cd3f	0.4156284
12	0x3d8b966c	0.068158
13	0x3d150af0	0.036387384
14	0x3d5f2fd6	0.05448898
15	0x3d5f9852	0.054588623
16	0x3c9e3a3c	0.019314878
17	0x3d7fac1c	0.062419996
18	0x3d0c74f1	0.03429121
19	0x3d14153d	0.036153067
20	0x3d48e981	0.04905081
21	0x3d384509	0.044987712
22	0x3eed93a5	0.46401706
23	0x3d5caa80	0.05387354
24	0x3d75b2c3	0.059984934
25	0x3db0dba6	0.086356446
26	0x3daa1e13	0.083065175
27	0x3d17876f	0.036994394
28	0x3d9e3bee	0.077262744
29	0x3d407219	0.046983812
30	0x3ce795cd	0.028269673
31	0x3cf3ea23	0.029774731

bias f4 [32]
0	0x3c0cba32	0.008589314
1	0x3e0678cb	0.13132016
2	0x3c9f63a7	0.019456698
3	0x3c22e5f9	0.009942525
4	0x3ba1d421	0.004938618
5	0xbb8beec8	-0.0042704083
6	0x3bdce4b6	0.0067411317
7	0x3c0792d6	0.0082747545
8	0xbc0b967b	-0.008519764
9	0xbbd30c6c	-0.00644069
10	0x3a67ad24	0.00088377506
11	0x3cf355a7	0.029703928
12	0x3ca81b8d	0.02052095
13	0x3bba2aba	0.005681363
14	0xbcea92a6	-0.02863438
15	0x3caa43ea	0.020784337
16	0x3c814a50	0.015782505
17	0x3cc6079a	0.024173547
18	0xbac9e477	-0.0015403171
19	0xbb510aa1	-0.0031897204
20	0x3c6ab358	0.014324985
21	0x3bb9fe7f	0.0056760903
22	0x3d321184	0.043473735
23	0x3c880040	0.016601682
24	0xbc00f54d	-0.007870984
25	0x3d61f02f	0.055160698
26	0x3cb6b23b	0.022301784
27	0xbc41b412	-0.011822717
28	0x3c054374	0.008133758
29	0x3aa65ccd	0.0012692452
30	0x3c7316e8	0.014837004
31	0xbbb01622	-0.005373732

running_mean f4 [32]
0	0x3d9231c7	0.071384005
1	0x3e39ff27	0.18163739
2	0x3e59f17c	0.21283525
3	0x3b9fb14e	0.0048734313
4	0x3e30aa96	0.17252573
5	0x3e4f8af5	0.20267852
6	0x3eb6a6be	0.3567409
7	0x3d8fbca9	0.07018406
8	0x3dfdffb3	0.124022864
9	0x3ba0a375	0.004902298
10	0x3dd1c993	0.10243525
11	0x3cbdf548	0.023188248
12	0x3e677e2b	0.22606723
13	0x3e3dd83c	0.18539518
14	0x3ea09cf0	0.31369734
15	0x3d9da65f	0.076977484
16	0x3d5974e6	0.05309
17	0x3e1d6a62	0.15372613
18	0x3e5a0fb8	0.21295059
19	0x3d8d6dd6	0.06905715
20	0x3e5e2720	0.21694613
21	0x3d2f6e1a	0.04282961
22	0x3cd8fe56	0.026488464
23	0x3e39c9ba	0.18143359
24	0x3e85d680	0.26140213
25	0x3e80e8d3	0.2517763
26	0x3e9b166d	0.30290547
27	0x3c2ed68b	0.010671268
28	0x3ca86d0f	0.020559816
29	0x3c109cd0	0.0088264495
30	0x3dc5916d	0.096468784
31	0x3dcb32be	0.09921788

running_var f4 [32]
0	0x3d5ca326	0.053866528
1	0x3e82ac86	0.2552225
2	0x3ebc5d88	0.3679011
3	0x3ba3982d	0.004992506
4	0x3e78b109	0.24286284
5	0x3e2488fc	0.1606788
6	0x3e9a85c5	0.30180183
7	0x3d37fdea	0.044919886
8	0x3dbb66a1	0.09150434
9	0x3b19b6eb	0.0023454975
10	0x3dbfc20c	0.093631834
11	0x3ce196da	0.027537752
12	0x3e1d5a85	0.15366562
13	0x3e3de9d4	0.1854623
14	0x3e71b3a1	0.23603679
15	0x3db2bdf2	0.087276354
16	0x3d41b4fe	0.04729175
17	0x3e613996	0.21994624
18	0x3e08711e	0.13324401
19	0x3d44276b	0.047889154
20	0x3e25260c	0.16127795
21	0x3d04a563	0.032384288
22	0x3ccdc856	0.025119942
23	0x3e4ac946	0.19803342
24	0x3e377698	0.17916334
25	0x3e958dba	0.2920969
26	0x3ebbbc05	0.36666885
27	0x3bdffe89	0.006835763
28	0x3c524f96	0.012836358
29	0x3c3c6443	0.011498514
30	0x3da44a94	0.08022037
31	0x3dcbaa34	0.09944573

weight f4 [128, 512]
0	0x3dc6655d	0.09687302
1	0x3e90072a	0.28130466
2	0x3e0ffcb9	0.1406125
3	0x3def488a	0.116837576
4	0xbe29f017	-0.16595493
5	0xbe62456b	-0.22096793
6	0xbd8dd0da	-0.06924601
7	0xbf0af206	-0.5427555
8	0xbcf82cb8	-0.030294761
9	0x3e32d777	0.17465006
10	0xbe0bada0	-0.13640451
11	0x3e2d68f8	0.16934574
12	0xbe882912	-0.26593834
13	0xbe8608b4	-0.26178515
14	0xbe00686e	-0.12539837
15	0x3e7f8ddc	0.24956459
16	0x3dee079f	0.11622547
17	0x3d12c12e	0.03582876
18	0xbdd8834d	-0.10571919
19	0xbe35c2a9	-0.17750038
20	0x3e49d33c	0.19709486
21	0x3d57d2f7	0.052691426
22	0xbeea52cb	-0.4576629
23	0x3e6d062d	0.23146887
24	0x3e78fa93	0.24314336
25	0xbe8a6c4f	-0.27035758
26	0xbe03e775	-0.12881263
27	0x3e31e375	0.17371924
28	0x3e13f9cc	0.14450759
29	0x3e35f236	0.17768177
30	0x3dfd44fa	0.12366672
31	0xbe4eed75	-0.2020777
32	0x3d97db84	0.07414916
33	0xbec3a7b1	-0.38213876
34	0xbe58c3b7	-0.2116841
35	0x3ca95886	0.020672094
36	0x3d31bf9a	0.043395616
37	0x3dd424d1	0.10358585
38	0xbe27a628	-0.16371977
39	0xbc667b9e	-0.014067559
40	0x3e48197d	0.19540973
41	0x3e185e34	0.14879686
42	0x3e35deb6	0.17760739
43	0xbed060e4	-0.40698922
44	0x3c89674a	0.016772885
45	0x3e937cdf	0.28806207
46	0xbe86ba42	-0.26313978
47	0x3dad754d	0.08469639
48	0x3e4312f8	0.19050205
49	0x3e904e44	0.28184712
50	0x3e1ee1a8	0.15515769
51	0x3e2bcfe6	0.16778526
52	0x3d4fdc92	0.05074746
53	0x3e21942f	0.15779184
54	0xbd2d2bbe	-0.042278044
55	0x3e853065	0.26013485
56	0xbd95ffee	-0.07324205
57	0x3bc23502	0.005926729
58	0xbe411d02	-0.18858722
59	0x3e326da9	0.17424645
60	0xbe02aa7b	-0.12760346
61	0xbe07a2b1	-0.13245656
62	0x3efaaafc	0.48958576
63	0x3e7aa020	0.24475145
64	0x3cff338a	0.031152505
65	0xbe72bb39	-0.23704232
66	0xbe4f702e	-0.20257637
67	0xbe551502	-0.20808795
68	0xbd3bebe2	-0.045879252
69	0x3eb12810	0.34600878
70	0x3cc05b0e	0.023480918
71	0xbdb49ee6	-0.0881937
72	0xbe4fc64c	-0.20290488
73	0x3e0023ab	0.12513606
74	0x3c644bc5	0.0139340805
75	0xbf0919fd	-0.5355528
76	0xbe1e9efd	-0.15490337
77	0x3daff6e4	0.085920125
78	0xbdc14ddd	-0.09438679
79	0x3dc56ebe	0.09640263
80	0xba4f45fa	-0.00079068507
81	0x3cd9e6e3	0.026599353
82	0x3daf8dec	0.08571991
83	0xbdf1ecde	-0.11812757
84	0xba88fcb7	-0.0010451291
85	0x3eb76496	0.35818928
86	0x3c8cd465	0.017191121
87	0x3b805d0d	0.0039173425
88	0x3e8aa3bc	0.27078044
89	0xbcb542fe	-0.02212667
90	0xbbe51f38	-0.006992247
91	0x3bf05bdd	0.0073351697
92	0xbeb7a32a	-0.35866672
93	0xbe3b2c4a	-0.18278614
94	0xbe697fc5	-0.22802646
95	0xbe80f6a8	-0.25188184
96	0xbcfd9e8d	-0.030959392
97	0x3d07d42d	0.03316133
98	0xbcaf9ff6	-0.02143858
99	0x3cb0b929	0.021572666
100	0x3cf1ce70	0.029517382
101	0x3d4223a1	0.04739726
102	0xbe14022f	-0.14453958
103	0xbf17546a	-0.5911318
104	0x3ca1c4c1	0.01974714
105	0x3d35f7d1	0.04442579
106	0xbd91af9d	-0.07113574
107	0x3e2a35af	0.16622041
108	0x3e51da56	0.20493445
109	0x3dcb9eab	0.09942373
110	0xbe2d0f9a	-0.16900483
111	0xbd9f1045	-0.07766775
112	0xbd8b33ad	-0.06796966
113	0x3e0465e1	0.12929489
114	0xbdd16619	-0.10224552
115	0x3dee8f99	0.11648483
116	0xbd52d954	-0.05147679
117	0xbe607904	-0.21921164
118	0xbe1b1217	-0.1514362
119	0xbe4d94a6	-0.20076236
120	0xbe923b2d	-0.28560773
121	0xbcbc0d86	-0.022955667
122	0x3da98921	0.082781084
123	0x3ead4b70	0.33846617
124	0x3eda94e8	0.4269173
125	0xbc74e26c	-0.014946561
126	0x3e8b3fa0	0.2719698
127	0x3e88472a	0.26616794
128	0x3de26b69	0.11055643
129	0xbdb9d9b6	-0.09074728
130	0x3e09cc51	0.13456847
131	0xbc154f88	-0.0091132
132	0x3e80ad64	0.25132287
133	0xbe517461	-0.20454551
134	0xbe1e1024	-0.15435845
135	0xbcb4bdb6	-0.022063117
136	0x3d89cf23	0.06728961
137	0x3e055621	0.13021137
138	0x3df1898d	0.11793814
139	0xbe8a64ab	-0.2702993
140	0x3eafd649	0.34343174
141	0xbedff821	-0.43743995
142	0xbdfd9d82	-0.12383558
143	0x3eaac371	0.33352235
144	0xbe047281	-0.12934305
145	0xbeb14107	-0.34619924
146	0xbed9959e	-0.4249696
147	0xbe4ea96d	-0.20181818
148	0x3e6a68e7	0.2289158
149	0xbed7e250	-0.4216485
150	0x3ec11ca7	0.37717173
151	0xbe2b953c	-0.16756147
152	0x3dbf966c	0.093548626
153	0xbd1707ad	-0.036872555
154	0x3e77cf20	0.24200106
155	0x3dd174d6	0.10227363
156	0xbe55dec8	-0.20885766
157	0xbbcfa6ba	-0.006337014
158	0xbe80a70c	-0.25127447
159	0x3e5b8a80	0.21439552
160	0x3e12dd05	0.14342125
161	0xbe43a3d4	-0.19105464
162	0x3df55271	0.11978615
163	0x3e0e0b78	0.13871562
164	0x3df9b038	0.12191814
165	0x3e665e21	0.22496845
166	0xbdb2052d	-0.086923935
167	0x3d26a276	0.04068228
168	0xbe39767d	-0.18111606
169	0x3e3a39c7	0.18186103
170	0x3d998be6	0.07497387
171	0x3d4c3b4c	0.049861237
172	0x3e57388a	0.21017662
173	0x3e0a8bf7	0.13529955
174	0x3e7791da	0.24176732
175	0x3e154382	0.14576533
176	0x3db3fcac	0.08788428
177	0xbe650ee3	-0.2236896
178	0x3e03642a	0.12831178
179	0xbedfc350	-0.437037
180	0x3dcfc8db	0.10145732
181	0xbf0a0390	-0.53911686
182	0xbd99b88d	-0.075059034
183	0x3d8f5973	0.06999483
184	0x3dfd376d	0.12364087
185	0xbec84cfd	-0.39121237
186	0xbf01aadc	-0.50651336
187	0xbd30673a	-0.043067195
188	0x3db79b47	0.08965164
189	0x3d5081e8	0.05090514
190	0xbdd0db1b	-0.10198041
191	0xbed00d0e	-0.4063496
192	0x3df6df41	0.12054301
193	0xbe2c4914	-0.16824752
194	0x3d3d6ab1	0.046244327
195	0xbdb836be	-0.08994816
196	0x3db9ad89	0.09066302
197	0xbd9e0882	-0.077164665
198	0xbefabaee	-0.4897074
199	0x3e3e433e	0.18580338
200	0xbe5ef543	-0.21773247
201	0xbe754c95	-0.23954995
202	0xbd3a2c7a	-0.045452572
203	0xbd0b5601	-0.034017567
204	0xbe38ddca	-0.18053356
205	0xbe6cacae	-0.23112747
206	0x3d495f97	0.049163427
207	0xbe390b7e	-0.1807079
208	0x3d3d658e	0.04623943
209	0x3e5935cd	0.2121193
210	0xbd4a23e7	-0.049350645
211	0xbe9ff37a	-0.31240445
212	0xbe14d970	-0.14536071
213	0xbda9397a	-0.08262916
214	0xbe0f5e90	-0.14000916
215	0xbf10faac	-0.56632495
216	0x3c80a6f4	0.01570461
217	0x3cfda961	0.030964555
218	0x3d938a42	0.07204105
219	0x3e5c3515	0.21504624
220	0xbc8bf12c	-0.017082773
221	0x3de987aa	0.11402829
222	0xbdc40684	-0.09571555
223	0xbdacd49d	-0.0843899
224	0xbc53dbb0	-0.012930796
225	0x3e242119	0.16028251
226	0x3c7ed817	0.0155544495
227	0x3e81ab40	0.25325966
228	0x3ca52bbe	0.02016246
229	0x3e2498f0	0.16073966
230	0x3d9ecd52	0.077540055
231	0x3ed7a1f9	0.42115763
232	0x3d7aab77	0.061198678
233	0xbc8c6cd4	-0.017141737
234	0xbcdcb497	-0.02694158
235	0x3eac471c	0.33648002
236	0x3d706e22	0.05869878
237	0xbe065d0f	-0.13121437
238	0x3e37cce3	0.17949252
239	0xbe49d005	-0.1970826
240	0x3ec8f117	0.39246437
241	0xbc111c2a	-0.0088568125
242	0xbc19eb5f	-0.009394496
243	0x3dbb2ae5	0.09139041
244	0x3e45fb92	0.19334248
245	0xbdb88577	-0.090098314
246	0xbf19480f	-0.5987558
247	0x3d14b192	0.036302157
248	0x3dc1a5c7	0.09455448
249	0xbe693ce2	-0.22777131
250	0xbd8fec30	-0.07027471
251	0x3c7ce25d	0.015434829
252	0xbdc34342	-0.09534313
253	0x3e1a3ab3	0.15061454
254	0xbe28094c	-0.16409796
255	0x3d9fdfe0	0.07806373

bias f4 [128]
0	0xbd09cca6	-0.033642434
1	0xbe747e5a	-0.23876324
2	0x3ef0a8a5	0.47003666
3	0xbc9b923e	-0.018990632
4	0x3e5784c8	0.21046746
5	0xbd65549f	-0.055988904
6	0x3c947523	0.018122261
7	0x3e0605a8	0.13088095
8	0x3d626523	0.055272233
9	0xbe95cf51	-0.29259732
10	0xbcbc6a13	-0.022999799
11	0xbd18f67b	-0.037344437
12	0xbe172667	-0.14760743
13	0xbde142cb	-0.10999068
14	0x3d8a24e7	0.0674532
15	0xbdf95192	-0.121737614
16	0xbd596e4d	-0.053083707
17	0x3dc100af	0.094239585
18	0x3caa19d7	0.020764275
19	0x3e17ce09	0.1482469
20	0xbe3a809e	-0.18213126
21	0xbe0cca56	-0.1374906
22	0xbe0e7cbd	-0.13914771
23	0xbd8f0e14	-0.06985107
24	0x3d83f180	0.06442547
25	0xbd419955	-0.04726537
26	0xbe2db129	-0.16962112
27	0x3d5703f6	0.05249401
28	0xbe86d463	-0.26333913
29	0xbdb932b9	-0.09042878
30	0x3c6c5396	0.014424225
31	0xbbb1bb99	-0.0054239747
32	0x3de5387b	0.111924134
33	0x3c9a7f64	0.018859573
34	0x3f00e1d1	0.5034457
35	0xbe5ec85d	-0.2175612
36	0xbd9f17fc	-0.077682465
37	0xbe50a6ea	-0.20376173
38	0x3a0b1f46	0.00053070893
39	0xbe313533	-0.1730545
40	0xbe73c008	-0.23803723
41	0x3d139936	0.036034785
42	0xbe3e803e	-0.18603608
43	0xbdea1696	-0.11430089
44	0x3e04d383	0.1297131
45	0xbd6e19e7	-0.05813017
46	0xbe7dda34	-0.24790269
47	0x3d7c5eb4	0.061613753
48	0xbe3bd894	-0.18344337
49	0xbe826450	-0.25467157
50	0xbd1262ba	-0.035738684
51	0xbe2bb711	-0.16769053
52	0x3e37f25a	0.17963544
53	0xbdd33df7	-0.10314553
54	0x3d827fec	0.063720554
55	0xbe1f6568	-0.15566027
56	0x3d87a1ae	0.06622635
57	0x3cd2098b	0.025639316
58	0xbd927ec3	-0.07153084
59	0xbdd89c73	-0.10576715
60	0x3d93bb36	0.07213442
61	0xbd4a6041	-0.0494082
62	0x3e5c81b3	0.21533851
63	0xbf00fc47	-0.50384945
64	0xbe6f943a	-0.23396388
65	0xbd777cba	-0.060421683
66	0xbeba8b4e	-0.36434406
67	0x3d8d16ac	0.0688909
68	0xbcffe348	-0.031236306
69	0xbe01e34b	-0.12684362
70	0x3e92b017	0.2864997
71	0x3f060a25	0.5235923
72	0xbe67ac0d	-0.22624226
73	0x3dbfb4aa	0.09360631
74	0xbd236164	-0.0398878
75	0x3dc34c84	0.095360786
76	0xbdb1134b	-0.08646258
77	0xbe2774d2	-0.16353157
78	0xbd93a4ce	-0.072091684
79	0x3e981f75	0.297115
80	0xbe33e377	-0.1756724
81	0xbe195377	-0.14973246
82	0x3e93b24d	0.2884697
83	0xbb95685d	-0.00455956
84	0x3ea08f2f	0.3135924
85	0xbda6a6d6	-0.0813729
86	0x3d7e8a0c	0.06214337
87	0xbda26fbc	-0.07931468
88	0xbd532600	-0.05154991
89	0x3e17068d	0.14748593
90	0xbdec7724	-0.11546162
91	0xbe352561	-0.1769004
92	0x3df35437	0.11881297
93	0x3c313d87	0.010817892
94	0x3d517ac2	0.05114246
95	0x3ce58b54	0.028020538
96	0x3e7fac11	0.24967982
97	0xbe840b85	-0.2579004
98	0xbea22274	-0.3166691
99	0xbe585513	-0.21126203
100	0xbdff280b	-0.124588095
101	0x3eadecb0	0.3396964
102	0x3b98d47d	0.0046640025
103	0x3e504ee4	0.20342594
104	0x3cb4769c	0.022029214
105	0xbe0b7e9b	-0.13622515
106	0xbc1f644a	-0.009728501
107	0x3e269ea9	0.16271462
108	0xbd70b90e	-0.058770232
109	0xbe85396e	-0.26020378
110	0x3de9f528	0.11423713
111	0xbc8bd259	-0.017068075
112	0xbb2e43cd	-0.0026590705
113	0xbe4c3e1c	-0.19945568
114	0xbcee6456	-0.029100578
115	0x3e0c3eef	0.13695882
116	0xbe177dd2	-0.1479409
117	0x3d3f40a8	0.04669252
118	0x3d719c58	0.05898699
119	0xbd5629c1	-0.052285913
120	0xbdd6f8e5	-0.104966916
121	0xbd6eb967	-0.058282282
122	0xbe350d35	-0.1768082
123	0xbc449b8a	-0.011999974
124	0xbe28e6cf	-0.16494296
125	0x3d45a6e7	0.048254874
126	0x3d14b178	0.03630206
127	0xbc502cce	-0.012705995

weight f4 [128, 128]
0	0xbdc6cc7d	-0.09706972
1	0x3e138376	0.14405617
2	0x3e6abc25	0.22923334
3	0xbe7e8944	-0.2485705
4	0x3da5033f	0.0805726
5	0x3e23325a	0.15937176
6	0x3d8dfe9a	0.06933327
7	0xbd1c8437	-0.038212027
8	0x3de2365c	0.110455245
9	0xbe3e3a67	-0.18576966
10	0xbd77f4f0	-0.060536325
11	0x3d267dcb	0.04064731
12	0xbe6ed39c	-0.2332291
13	0xbe54cb13	-0.20780592
14	0x3c413366	0.0117920395
15	0xbe3a0867	-0.18167268
16	0xbe1a798c	-0.15085429
17	0xbe04a516	-0.129536
18	0xbd30d2f2	-0.043169923
19	0x3e030085	0.12793167
20	0xbc6447bd	-0.013933119
21	0x3da29727	0.07938986
22	0xbdca10ed	-0.098665096
23	0x3deb4cbd	0.11489246
24	0xbe38b389	-0.18037237
25	0x3c190cee	0.009341462
26	0xbe617739	-0.22018136
27	0xbe2581db	-0.16162817
28	0x3dab478a	0.08363254
29	0xbdc2561c	-0.0948908
30	0xbdf08b75	-0.11745349
31	0x3e9e06c5	0.3086454
32	0xbe6d5476	-0.2317675
33	0x3dc1d1be	0.09463833
34	0xbcff343f	-0.031152843
35	0xbdb66a3a	-0.0890698
36	0xbdfeb083	-0.12436011
37	0xbeaf60c4	-0.34253514
38	0xbe0b9487	-0.13630877
39	0x3bf9ac7c	0.0076194387
40	0xbdbda045	-0.092590846
41	0xbefc9dba	-0.49339086
42	0x3d933790	0.07188332
43	0x3d3f6ad8	0.046732754
44	0xbd181b36	-0.037135325
45	0x3e55bfac	0.20873898
46	0x3d329698	0.04360065
47	0xbe313805	-0.17306526
48	0xbda59515	-0.08085076
49	0x3e107257	0.14106117
50	0xbf1923e2	-0.5982038
51	0xbd1bfe67	-0.038084414
52	0x3db6532a	0.08902581
53	0xbee3a987	-0.44465277
54	0xbc854413	-0.016267812
55	0xbe6f318d	-0.23358746
56	0x3e6e4fb8	0.23272598
57	0x3d8711b0	0.065951705
58	0xbe1c3ffe	-0.15258786
59	0xbdd327c8	-0.10310322
60	0x3d88143f	0.06644487
61	0xbe05f58a	-0.13081947
62	0x3dcb6571	0.09931458
63	0xbc16617d	-0.009178516
64	0x3cdb0864	0.0267374
65	0xbe261706	-0.1621972
66	0x3d3bd213	0.04585464
67	0x3e79110b	0.24322908
68	0xbe83d305	-0.25746933
69	0x3e22df5e	0.1590552
70	0xbd99291e	-0.074785456
71	0x3dfc4f00	0.123197556
72	0x3d7f97bb	0.06240056
73	0xbd4fe6e3	-0.0507573
74	0xbe479cea	-0.19493452
75	0x3dca0838	0.09864849
76	0xbdc51a0f	-0.09624111
77	0x3d203c71	0.03912014
78	0x3dc5011d	0.09619353
79	0x3d3ef6ba	0.046622016
80	0xbe8b8bd7	-0.27255127
81	0xbde51d20	-0.11187196
82	0x3e1707bf	0.14749049
83	0x3e2a4b35	0.16630252
84	0x3d381542	0.044942148
85	0xbcbed580	-0.023295164
86	0x3d6d8a54	0.057993248
87	0x3cc96539	0.0245844
88	0xbe99c060	-0.30029583
89	0x3e036155	0.12830098
90	0xbd8fffc9	-0.07031209
91	0x3e56f6cb	0.20992582
92	0x3dfa5ef1	0.1222514
93	0x3e36623a	0.17810908
94	0xbd8a2c17	-0.06746691
95	0x3e48f04d	0.19622917
96	0x3e0b35d9	0.1359476
97	0xbddaf723	-0.10691669
98	0x3daaf73c	0.083479375
99	0x3e791695	0.2432502
100	0x3e78c18b	0.24292581
101	0xbe92598a	-0.28583938
102	0x3db782a1	0.08960462
103	0xbd60a173	-0.05484147
104	0xbcd49ad9	-0.025952743
105	0xbe3e76eb	-0.18600051
106	0xbe2be8f4	-0.16788083
107	0xbdfe9049	-0.12429864
108	0xbdf0fc00	-0.11766815
109	0x3e187e0b	0.14891832
110	0x3bf1267a	0.007359323
111	0x3bb70302	0.0055850754
112	0x3dbbb8cd	0.09166107
113	0xbeeeb2e7	-0.46620867
114	0x3cacafc4	0.021079905
115	0x3e17a173	0.14807682
116	0x3e390753	0.180692
117	0x3baccd13	0.00527347
118	0xbebe03be	-0.3711223
119	0xbea7dc56	-0.3278529
120	0x3e0517ce	0.12997362
121	0xbe0dd7a0	-0.13851786
122	0x3e2a91c5	0.16657169
123	0xbeb5d343	-0.35512742
124	0x3e6d881f	0.23196457
125	0xbeaffd9a	-0.3437317
126	0xbe6d179d	-0.23153539
127	0xbe5db8a8	-0.21652472
128	0xbda7ddb0	-0.081965804
129	0xbc712fa8	-0.014720835
130	0x3bfe185c	0.0077543687
131	0xbd7d8975	-0.061898667
132	0xbd230956	-0.039803825
133	0xbdb22be1	-0.086997755
134	0xbd0f9e4c	-0.035063073
135	0xbd714943	-0.05890776
136	0x3ca0d31d	0.019631917
137	0xbda0986f	-0.078415744
138	0x3c90becb	0.017669102
139	0xbdacb800	-0.08433533
140	0xbc8886ff	-0.016665934
141	0xbd06e5a3	-0.032933842
142	0xbda2534e	-0.07926045
143	0xbdb826d0	-0.08991778
144	0xbdfcd220	-0.12344766
145	0xbdcb73d9	-0.099342056
146	0x3d05fab9	0.03270981
147	0xbdfe35dd	-0.12412617
148	0xbda0b514	-0.07847038
149	0xbd591851	-0.053001706
150	0xbd875c0a	-0.06609352
151	0xbdd8b237	-0.10580867
152	0xbe15d067	-0.1463028
153	0xbd5caad9	-0.05387387
154	0x3d3a58fb	0.045495015
155	0xbd905a8f	-0.07048523
156	0x3b845646	0.004038605
157	0xbccae262	-0.02476615
158	0xbd43a050	-0.047760308
159	0x3c80d587	0.015726818
160	0x3c4e456b	0.012589793
161	0x3c3b12be	0.011418043
162	0xbd7cd772	-0.061728902
163	0xb93ab83c	-0.00017806975
164	0xbe0d1532	-0.13777617
165	0xbd92250a	-0.07135971
166	0xbd3125d2	-0.04324896
167	0xbd62cb52	-0.055369683
168	0xbdb8f1c4	-0.09030488
169	0xbdac1496	-0.08402364
170	0x3cd6a441	0.02620137
171	0xbd261a80	-0.040552616
172	0x3c17a3bd	0.009255347
173	0xbd03e9b8	-0.032205313
174	0xbc3b523d	-0.011433181
175	0xbd9268d7	-0.07148903
176	0x3d606a60	0.054788947
177	0xbd5db6c8	-0.054129392
178	0xbd6762fb	-0.05649088
179	0xbd0d8ffc	-0.034561142
180	0xbc182729	-0.00928668
181	0xbdb1cc5e	-0.08681558
182	0xbcf09210	-0.029366523
183	0xbd83480d	-0.06410227
184	0xbdbdd24a	-0.09268625
185	0xbcdf9d9c	-0.027296834
186	0xbd5613e7	-0.052265074
187	0xbdfafe77	-0.122555666
188	0x3c4e663f	0.01259762
189	0x3d721fcb	0.05911235
190	0xbdbd9a94	-0.09257999
191	0xbde0d571	-0.10978211
192	0x3c189234	0.009312201
193	0xbd69d26c	-0.05708544
194	0x3d131bd9	0.03591523
195	0x3c245307	0.010029561
196	0xbd4f370c	-0.050589606
197	0x3cff703e	0.031181451
198	0x3bb377fc	0.0054769497
199	0xbd01c30f	-0.031680163
200	0x3c088cc1	0.00833434
201	0xbc4aa495	-0.012368341
202	0xbda74651	-0.08167709
203	0xbd4560dd	-0.04818808
204	0xbc08d5d0	-0.008351758
205	0xbdea32ec	-0.11435494
206	0xbdd59191	-0.10428155
207	0xbdbde570	-0.09272277
208	0xbd75daae	-0.060023002
209	0x3d21f12e	0.039536647
210	0xbdd595a7	-0.104289345
211	0xbd7def2d	-0.061995674
212	0x3d1fa79c	0.038978204
213	0x3d11bf3a	0.03558276
214	0x3d4a147c	0.04933594
215	0x3c4c641b	0.012475039
216	0x3c27d2e4	0.010243151
217	0xbd447ee7	-0.047972586
218	0xbd30d1cc	-0.043168828
219	0xbd1f80e5	-0.038941283
220	0xbd6caced	-0.057782102
221	0xbda9df1e	-0.08294509
222	0xbcd49389	-0.025949256
223	0xbc6becae	-0.014399691
224	0xbd8ab795	-0.06773297
225	0xbdbb9e16	-0.09161012
226	0xbdf261b8	-0.118350446
227	0xba980ebd	-0.0011601072
228	0xbd06e20f	-0.03293043
229	0x3be6d1c5	0.0070440494
230	0xbca2a69c	-0.019854836
231	0xbd90508b	-0.07046612
232	0xbddf3f3c	-0.10900733
233	0x3c526909	0.012842425
234	0x3b2654d6	0.0025380156
235	0xbb86a297	-0.0041087377
236	0xbcdbacee	-0.026815858
237	0xbdfc7f16	-0.12328927
238	0x3bb88fbd	0.0056323693
239	0xbd83c170	-0.0643338
240	0xbca0c0cb	-0.01962318
241	0xbd73a719	-0.05948553
242	0xbe1069f9	-0.14102925
243	0xbc4d001c	-0.012512233
244	0xbd1bc875	-0.038032968
245	0xbce43b91	-0.027860435
246	0xbd7f4744	-0.062323824
247	0xbd3adc13	-0.045620035
248	0xbd00a505	-0.031407375
249	0xbc13bcdd	-0.0090171965
250	0x3d4e270f	0.050330218
251	0x3d75380f	0.059867915
252	0x3c82aed7	0.01595251
253	0xbc238a68	-0.009981729
254	0xbdb9ba8e	-0.090687856
255	0x3cec9430	0.028879255

bias f4 [128]
0	0x3eb7c850	0.35895014
1	0xbd8d0925	-0.0688651
2	0x3f153649	0.5828596
3	0x3ec6eb13	0.38851222
4	0x3c86b06a	0.016441543
5	0x3f0bb757	0.5457663
6	0x3f1e6acf	0.61881727
7	0xbd6267fc	-0.05527495
8	0x3cde12bd	0.027108544
9	0xbd94a89e	-0.07258724
10	0x3edc4c8f	0.4302716
11	0x3f0e58db	0.5560433
12	0x3dd3a53d	0.10334251
13	0xbc387750	-0.011258915
14	0xbd4fef17	-0.050765123
15	0xbd95784f	-0.07298338
16	0x3dc588fc	0.09645268
17	0x3dc258e4	0.09489611
18	0xbdbd9b8b	-0.09258183
19	0xbe254b6d	-0.16142054
20	0x3d34942b	0.044086616
21	0xbc4db9ab	-0.012556474
22	0xbc26bfb7	-0.010177544
23	0x3e33b51d	0.17549558
24	0x3e894bda	0.26815683
25	0xbd39f897	-0.04540309
26	0x3c720523	0.0147717325
27	0xbe27964d	-0.16365929
28	0x3bc4ac19	0.006001961
29	0xbd1f8e0c	-0.038953826
30	0xbd95b321	-0.07309557
31	0x3ec71875	0.38885847
32	0xbd36df0f	-0.04464632
33	0xbd1604af	-0.03662556
34	0xbd31c420	-0.04339993
35	0x3ed6d29f	0.41957566
36	0x3e134ef4	0.14385587
37	0xbd598cd6	-0.053112827
38	0x3e9bed0d	0.30454293
39	0xbd5f8b63	-0.05457629
40	0x3ef48976	0.47761124
41	0x3eaf1316	0.3419425
42	0xbc46432c	-0.012100976
43	0x3f0c7129	0.5486017
44	0xbcc082e0	-0.023499906
45	0x3d8f98d1	0.07011569
46	0x3f151257	0.5823111
47	0x3f0a3f0c	0.5400245
48	0xbc732fde	-0.014842955
49	0xbd1e3cb5	-0.038632113
50	0x3c9fb399	0.019494819
51	0x3ec056e0	0.3756628
52	0x3f0e340b	0.5554816
53	0xbd2d69c3	-0.04233719
54	0x3eb501d3	0.35352954
55	0x3e02b88c	0.12765712
56	0x3e167786	0.14694032
57	0x3dedbdaa	0.11608441
58	0x3f28cd82	0.6593858
59	0x3f01c467	0.5069031
60	0x3dbb95bd	0.0915942
61	0x3df1f718	0.118147075
62	0xbd798f94	-0.060927942
63	0x3f085b06	0.5326389
64	0xbdfb5ed5	-0.12273947
65	0x3d085de2	0.03329266
66	0xbd110a20	-0.035410047
67	0xbb68ac81	-0.003550321
68	0x3f036bb2	0.51336205
69	0x3f0aa09c	0.5415132
70	0x3ebc3624	0.36760056
71	0x3efa2c33	0.48861846
72	0x3dabb2ec	0.08383736
73	0xbd1ac8f4	-0.0377893
74	0x3da89a67	0.08232575
75	0xbe08e8be	-0.13370034
76	0xbdb15a63	-0.08659818
77	0xbe4907d6	-0.19631895
78	0xbcc3a6ee	-0.02388331
79	0x3f24c716	0.6436628
80	0x3ec17066	0.37781066
81	0x3f213ac2	0.6298028
82	0x3e684891	0.22683932
83	0xbd4b398a	-0.04961542
84	0x3e1c5343	0.15266137
85	0x3f00b8bc	0.5028188
86	0xba5af17d	-0.00083520246
87	0xbe06f338	-0.13178718
88	0x3e8e8380	0.27834702
89	0xbdb00cf5	-0.08596221
90	0x3f042601	0.5162049
91	0x3df55397	0.11978834
92	0x3e85fd5d	0.26169863
93	0x3f1b45ff	0.6065368
94	0x3ef954b1	0.48697427
95	0x3f0559f9	0.5209041
96	0x3f231b08	0.6371312
97	0xbdf5b42f	-0.11997258
98	0x3ca3e558	0.02000682
99	0x3f0287ea	0.5098864
100	0xbd05c279	-0.032656167
101	0xbd1e4aff	-0.03864574
102	0x3ed9a19f	0.4250612
103	0x3e8a3779	0.26995447
104	0xbd8f5d30	-0.07000196
105	0x3ed5c365	0.41750637
106	0x3aae6ca2	0.0013307522
107	0x3d83bcc6	0.0643249
108	0x3e4d1ae3	0.20029788
109	0x3c3d3ad0	0.0115496665
110	0x3f0bf42c	0.5466945
111	0x3ef293cd	0.47378388
112	0x3e810730	0.25200796
113	0x3e7e9482	0.24861339
114	0x3f04342e	0.5164212
115	0xbd87f336	-0.06638186
116	0x3cf5c441	0.030000808
117	0xbe4ce135	-0.20007785
118	0xbd8d9486	-0.06913094
119	0xbda7cc9d	-0.08193324
120	0x3ef8e16d	0.48609486
121	0x3ebe5c25	0.37179676
122	0x3f0782a1	0.529337
123	0x3e485b21	0.19566013
124	0x3f094b2e	0.5363034
125	0x3ef2c0ce	0.47412723
126	0x3efa78de	0.4892034
127	0x3ddceece	0.10787736

weight f4 [24, 128]
0	0x3dcfd7a0	0.10148549
1	0x3d89feca	0.0673805
2	0x3da324f1	0.079660304
3	0x3e0ffc22	0.14061025
4	0xbd9426cb	-0.07233962
5	0xbdbb58c5	-0.09147791
6	0x3d95d780	0.07316494
7	0x3d1c14ef	0.0381059
8	0x3e1903b2	0.14942816
9	0xbc13292e	-0.008981986
10	0x3e7bc512	0.24586895
11	0x3d0382cd	0.032107163
12	0x3e1a3476	0.15059075
13	0xbd31ab70	-0.043376386
14	0x3da77883	0.08177283
15	0xbb1e71c3	-0.0024176694
16	0x3d9e9537	0.07743304
17	0xbe179f98	-0.14806974
18	0x3e54e90c	0.20792025
19	0x3e288698	0.16457593
20	0x3e2c762c	0.16841954
21	0x3ec9ea7e	0.39436716
22	0x3c2787b4	0.010225225
23	0xbd1d4f4f	-0.038405713
24	0xbe4a4414	-0.19752532
25	0x3d1ca71f	0.038245317
26	0x3e9ef7f8	0.3104856
27	0xbd1c07ee	-0.0380935
28	0x3d55124e	0.05201941
29	0xbdb19854	-0.086716324
30	0x3e2a4e4d	0.16631432
31	0x3d045718	0.03230962
32	0xbe05f8e8	-0.13083231
33	0xbcae3f93	-0.021270549
34	0xbcc6f696	-0.024287503
35	0xbd5fefe8	-0.05467215
36	0x3e3d1d3c	0.18468183
37	0x3d667509	0.056263957
38	0x3d8fdf08	0.07024962
39	0xbd78745d	-0.060657848
40	0xbe67e477	-0.22645746
41	0x3df9c4d0	0.12195742
42	0xbb4d992c	-0.0031371815
43	0x3dd2d058	0.10293645
44	0x3cd8ba22	0.026455943
45	0xbdfbca48	-0.122944415
46	0x3dbe6e50	0.09298384
47	0xbe6ce575	-0.23134406
48	0xbe12a644	-0.14321238
49	0xbdf5e80e	-0.120071515
50	0x3c48f72a	0.01226596
51	0x3e408660	0.1880126
52	0x3d01ae1f	0.031660195
53	0x3de6b857	0.11265629
54	0x3e3192c0	0.17341137
55	0x3dca9aff	0.098928444
56	0x3e94dcfc	0.29074848
57	0x3e7826e4	0.24233586
58	0x3d92648a	0.071480826
59	0xbea354c9	-0.31900623
60	0x3d8e746d	0.069558
61	0x3d645009	0.05574039
62	0x3bf0ca7b	0.0073483563
63	0x3d255991	0.04036862
64	0xbd1a86da	-0.03772626
65	0xbcd56988	-0.026051298
66	0x3d6014ef	0.054707464
67	0x3e246ba2	0.16056684
68	0x3dcabaaf	0.09898888
69	0xbedaa811	-0.4270635
70	0x3d63a396	0.05557593
71	0xbd8992f0	-0.06717479
72	0x3a872e22	0.0010313431
73	0x3cdee1fd	0.027207369
74	0x3b52c72f	0.003216218
75	0x3ce7fff9	0.0283203
76	0x3ccd4d36	0.025061231
77	0x3db7877e	0.0896139
78	0xbc651ad1	-0.013983444
79	0x3d7dd5f5	0.061971623
80	0x3d92b595	0.0716354
81	0x3d098e6b	0.033583086
82	0xbd13e3c7	-0.036105897
83	0x3e105fb6	0.14099011
84	0xbe5d8d99	-0.21636046
85	0xbe3f0c3c	-0.18657011
86	0x3dbf2395	0.093329586
87	0x3e5c1c84	0.21495253
88	0x3e4e6a6e	0.20157787
89	0x3e3632ea	0.1779286
90	0x3e076945	0.13223751
91	0xbdd8fdc7	-0.10595279
92	0x3ca00a39	0.019536125
93	0x3d3c5e61	0.045988444
94	0x3c6a4b8c	0.014300238
95	0x3c321c56	0.010871014
96	0x3db0eb63	0.086386465
97	0x3e37e618	0.17958868
98	0x3e35e7cb	0.17764203
99	0x3cd6fc65	0.026243398
100	0xbdc2e13c	-0.09515616
101	0xbcc0fba4	-0.023557492
102	0xbf0af51c	-0.5428026
103	0x3de4e0b1	0.11175669
104	0x3db05d55	0.08611552
105	0xbe89fee2	-0.26952273
106	0xbd1c3161	-0.03813303
107	0x3e26b83b	0.16281216
108	0x3e663bb3	0.22483711
109	0x3d1a287c	0.037636265
110	0x3c9bca1d	0.019017274
111	0x3da0690f	0.07832538
112	0x3e4def4e	0.20110819
113	0x3e189dbe	0.14903924
114	0xbe618022	-0.22021535
115	0xbd148048	-0.03625515
116	0xbd59bd6f	-0.053159174
117	0x3e0476dc	0.12935966
118	0x3db831a0	0.0899384
119	0x3bff0ff2	0.0077838833
120	0x3da2ac5a	0.0794303
121	0xbe6a1063	-0.22857814
122	0x3d6fdffa	0.05856321
123	0xbd898ab4	-0.06715909
124	0x3da64e95	0.08120457
125	0x3dab2b42	0.0835786
126	0x3d95ebdf	0.073203795
127	0x3e58a36c	0.2115609
128	0x3d2a007f	0.04150438
129	0x3daa0bf2	0.0830306
130	0x3da3ea42	0.080036655
131	0xbded2fb5	-0.11581365
132	0x3e8f77ba	0.28021032
133	0xbaadc680	-0.001325801
134	0x3d9e740f	0.0773698
135	0xbb1b4612	-0.0023692888
136	0xbe9d53b8	-0.30727935
137	0xbbf98b14	-0.0076154564
138	0x3d4e367a	0.05034492
139	0xbc625ea1	-0.013816507
140	0xbde1d36f	-0.11026656
141	0xbbc885d7	-0.0061194706
142	0xbd9fdfd4	-0.07806364
143	0x3d59f235	0.053209502
144	0xbe34adaf	-0.1764438
145	0xbdfe46d7	-0.124158554
146	0x3e497530	0.1967361
147	0xbdcb8c4c	-0.09938869
148	0xbe03680c	-0.1283266
149	0x3da95cd7	0.08269661
150	0x39e26249	0.00043179307
151	0xbcdd8761	-0.027042093
152	0x3df21dc5	0.11822084
153	0x3e0e79a5	0.13913591
154	0x3ec70a45	0.38875023
155	0xbd9db11a	-0.07699795
156	0x3d99d463	0.07511213
157	0xbdcb978e	-0.09941016
158	0x3ebcaf3d	0.36852446
159	0x3ddf1214	0.1089212
160	0x3c8ff6ac	0.017573677
161	0xbd61bb9b	-0.055110555
162	0x3d933034	0.071869284
163	0xbd50824a	-0.050905503
164	0x3e11daeb	0.14243667
165	0x3d1721f5	0.03689762
166	0x3e3de293	0.18543462
167	0x3decea8a	0.11568172
168	0x3e2b3701	0.16720201
169	0x3da8faa5	0.08250932
170	0x3cefd03a	0.029274095
171	0xbd23d036	-0.039993487
172	0x3e2472d5	0.1605943
173	0x3df96267	0.12176972
174	0xbc11ee3a	-0.008906895
175	0xbe8d9b4d	-0.27657548
176	0xbdde1cd1	-0.1084534
177	0xbd22eca3	-0.039776456
178	0x3d2669d6	0.040628277
179	0xbe3c0a6b	-0.18363349
180	0xbf2830be	-0.65699375
181	0x3e06cca7	0.13164006
182	0xbc312d9a	-0.010814095
183	0x3dd68165	0.10473899
184	0x3e38225c	0.17981857
185	0x3db7bfba	0.08972116
186	0x3da8dc15	0.08245102
187	0xbeb4268c	-0.3518566
188	0xbdd9e49c	-0.10639307
189	0x3e401585	0.18758209
190	0xbd5066bf	-0.050879236
191	0x3dc3dda6	0.095637605
192	0xbd13cff2	-0.036086984
193	0x3cac5954	0.021038689
194	0xbbfa54bb	-0.007639495
195	0xbd2b14bf	-0.041767832
196	0x3d2a9ada	0.041651584
197	0x3da3058e	0.07960044
198	0x3e3c4d77	0.18388925
199	0x3dc132dd	0.094335295
200	0x3ded90ef	0.115999095
201	0x3db3d593	0.087809704
202	0x3d8e0c2f	0.069359176
203	0x3d90dab4	0.07072964
204	0x3c534728	0.012895383
205	0x3db41ae1	0.08794189
206	0x3e0c96fc	0.13729471
207	0x3dd1205c	0.1021125
208	0xbca2a1e6	-0.01985259
209	0xbd0dd64a	-0.03462819
210	0x3d81f802	0.06346132
211	0x3dcc2ab2	0.09969081
212	0x3d8051b5	0.062655844
213	0xbe29dfb8	-0.16589248
214	0xbe02c31d	-0.12769742
215	0xbd94cdf1	-0.07265843
216	0x3cd67b3a	0.026181806
217	0x3dac65d1	0.084178574
218	0x3dd8bb6c	0.10582623
219	0x3e216f0c	0.15765017
220	0x3e8dfdb2	0.27732617
221	0x3d8b16a5	0.067914285
222	0x3d019d09	0.0316439
223	0xbed04f9e	-0.40685743
224	0x3e25e983	0.16202359
225	0x3e399e94	0.18126899
226	0x3e1e6a63	0.15470271
227	0x3b96f22e	0.004606507
228	0xbac67e49	-0.0015143837
229	0x3d0afcee	0.03393262
230	0xbe027ae4	-0.12742192
231	0x3e1e6734	0.15469056
232	0x3e093468	0.13398898
233	0x3e7eb6e0	0.24874449
234	0x3e7fa5ca	0.24965587
235	0x3d5f83ee	0.054569177
236	0x3e9e4452	0.309115
237	0x3daf97eb	0.08573898
238	0xbe095c89	-0.13414206
239	0x3d7ab7b7	0.06121036
240	0x3e025722	0.12728551
241	0x3d948018	0.072509944
242	0x3d5e7a04	0.054315582
243	0xbcc4d38d	-0.024026657
244	0x3dc7a165	0.097475804
245	0x3d1dd735	0.038535316
246	0x3d0c5598	0.034261316
247	0xbd7d6b7c	-0.061870083
248	0xbeacb8a5	-0.33734623
249	0xbe0ca4f3	-0.13734798
250	0x3d1b2c5c	0.0378841
251	0x3e9d03f5	0.3066708
252	0x3e0a2fc0	0.13494778
253	0xbc4cd6a0	-0.012502342
254	0x3d8b7fe1	0.068115
255	0xbe52bdaa	-0.20580164

bias f4 [24]
0	0x3c173e48	0.009231158
1	0xbcea4123	-0.028595513
2	0xbb676b10	-0.0035311617
3	0xbcc37540	-0.02385962
4	0xbcd1e2df	-0.025620876
5	0xbbfb9511	-0.007677682
6	0x3c17a071	0.009254561
7	0x3c9bf6fd	0.019038672
8	0xbcda0ebe	-0.026618358
9	0xbbad175e	-0.0052823266
10	0x3c72448a	0.014786849
11	0xbc91c669	-0.017794805
12	0xbca6baf8	-0.020352826
13	0x3a8fd496	0.001097339
14	0xbbc2eb37	-0.00594845
15	0xbd469f46	-0.04849174
16	0xb9c0d626	-0.00036780647
17	0xbd0927ee	-0.033485346
18	0xbca01590	-0.019541532
19	0xbc2a77ef	-0.010404571
20	0xbba25013	-0.0049533932
21	0xbc837d9f	-0.016051112
22	0xbce157d5	-0.027507702
23	0xbc9064ce	-0.017626192
